traj-generation/nn_models/box_5000.pth (torch, 353146 bytes, 6 tensors)

fc1.weight f4 [256, 14]
000000 d9 4c 36 3e 8a fa 91 3f b5 9e 1a 3d 3a 4b ac bd
       0.17802753 1.1404583 0.03774901 -0.08412786
000010 c3 7d 38 3e 9f 9d 81 be ea e3 1a be fc 27 f1 bd
       0.18016724 -0.25315568 -0.15126005 -0.117752045
000020 81 b9 ec 3c 2a 6d f3 3c 0a ef 98 3c 39 8a 97 3c
       0.028897049 0.02971514 0.01866867 0.018498527
000030 2a 81 02 3d 84 ee 8e be c3 78 32 bf 61 3e 90 3e
       0.03186146 -0.27916348 -0.6971552 0.2817259
000040 d3 8f 53 be 55 bc fa be 58 19 f7 3d f2 d7 e3 3d
       -0.20660333 -0.4897181 0.12065381 0.11125173
000050 17 39 2e 3b 3a 67 1c bf ef 06 1f 3e b0 a8 86 3e
       0.0026584321 -0.6109501 0.15529989 0.26300573
000060 09 56 20 be 43 c1 78 3b 3d 84 4c 3d 72 28 3f bd
       -0.1565782 0.003795699 0.0499308 -0.04666943
000070 d3 a7 4f bf 8a d0 7a 3f 2a 5f 65 3e 2b 52 85 3e
       -0.81115454 0.97974455 0.22399583 0.26039252
000080 00 56 8a 3d b2 39 52 3d 3e 8b b5 3d bc c0 07 be
       0.067546844 0.051324554 0.08864449 -0.13257116
000090 43 07 40 3e 10 3f c2 bd 90 79 ba 3e 4f 52 8e be
       0.1875277 -0.094846845 0.3642087 -0.2779717
0000a0 9c d3 26 bf 06 22 d9 3c 05 8d 79 bf 66 0f 32 3f
       -0.6516664 0.026505481 -0.97480804 0.69554746
0000b0 64 d8 ac be 17 e8 17 bf 50 9c 5a be b4 57 e1 bd
       -0.33758843 -0.59338516 -0.21348691 -0.11003056
0000c0 ae f1 8f 3d 1d cf f5 be 40 b1 c5 3e ea 34 2c bf
       0.070285186 -0.48009577 0.38611794 -0.6726824
0000d0 e9 bb 84 bd 95 b1 74 bd 58 f1 12 bf 61 4f ba bd
       -0.064811535 -0.059739668 -0.5739951 -0.090971716
0000e0 97 65 fe 3e e7 ee 80 3f 4a 7f 2a be f2 9e 8d be
       0.49686882 1.0072907 -0.1665012 -0.27660328
0000f0 94 54 b8 bd 39 c6 35 3d 3c 7a ba 3d 48 ac 93 3e
       -0.09000507 0.044378493 0.091053456 0.28842378
000100 28 10 e0 be 7b c3 88 3e eb 88 9f bd 0a bf c0 3d
       -0.43762326 0.2671164 -0.07789787 0.09411438
000110 d0 52 70 bc 3f 0b d0 3b fd 61 85 3d e2 96 66 3f
       -0.014668182 0.006348997 0.065128304 0.9007398
000120 43 20 fb be 5e a1 f8 be dc 72 f7 3d 69 c4 9a 3b
       -0.4904805 -0.48560613 0.120824546 0.004723121
000130 5c 2d 38 3d 41 ef 0d bf 5f 84 70 bd f2 49 df 3c
       0.044965133 -0.554432 -0.05871999 0.02725694
000140 b6 5d 89 bd aa d3 5c 3d 5a 27 17 be 30 a3 e4 be
       -0.06707327 0.053912796 -0.14761105 -0.44655752
000150 7f fa 8e 3d a0 02 e0 be eb 93 4c bf 4a 8c cb 3e
       0.06981372 -0.43752003 -0.79913205 0.3975547
000160 64 5f 3a be ca 70 65 3e 95 b0 fe bc 25 ad e3 3d
       -0.18200451 0.22406307 -0.03109006 0.11117009
000170 15 41 a5 3d 32 0c 2d 3d 58 ce 9f be 43 59 06 3d
       0.08069054 0.04224796 -0.31212115 0.03279997
000180 ee f3 b7 bd 50 14 e9 3d 46 a2 1d 3f a4 1d a9 be
       -0.08982073 0.113808274 0.61575735 -0.33030427
000190 30 7a 56 be 62 3b be 3e 55 bd 04 bc 1a 06 b1 bd
       -0.20945048 0.3715468 -0.008101781 -0.08643742
0001a0 e2 23 a5 bd f5 4a 53 be 9f f4 56 bd 09 1e 89 3d
       -0.08063485 -0.20634063 -0.052479383 0.06695182
0001b0 df 4a a6 3e 05 5e a2 3d e1 2a c9 3d a8 fd c6 3d
       0.32478997 0.07928089 0.098226316 0.0971635
0001c0 ce a4 01 3f dd 4e bd be 24 a9 8d bd b0 dc 22 3e
       0.50642097 -0.3697423 -0.06917027 0.15904498
0001d0 6c 60 83 3b 64 4f d8 bd 35 14 2b 3e b8 4d 2a 3d
       0.004009297 -0.105620176 0.16706927 0.041578025
0001e0 29 78 6a be 60 27 27 bd da 14 5d bd 05 52 d2 3c
       -0.228974 -0.040809035 -0.053974964 0.025673876
0001f0 3a c4 f0 bd 39 12 6b bc f9 ab c5 be ab 1a b4 3f
       -0.11756177 -0.014347606 -0.38607767 1.4070638
000200 12 f7 cb be af 37 90 be b9 a3 5e be ba ce 1e be
       -0.39836937 -0.28167483 -0.21742143 -0.15508547
000210 74 89 05 3e 85 81 cf bd 6e 33 e5 3c d7 2b e2 bd
       0.13040715 -0.10132126 0.027978625 -0.11043518
000220 04 d1 42 3d 4a fb 9f bc 2b 6c d8 3e b9 11 1b 3d
       0.047562614 -0.019529004 0.42270026 0.0378587
000230 78 bd 24 3f 9d 4d 6e 3e 04 09 fe 3d 42 cb 55 3c
       0.64351606 0.23271795 0.12404063 0.013048949
000240 1c b4 82 3e de 4b 4c 3e 6d 68 a7 bd 3e ec f1 bd
       0.25528038 0.19950816 -0.081742145 -0.11812638
000250 b5 3d ba be 8b c3 5e 3d df ec 9e 3e 9f 5d 29 bd
       -0.36375204 0.054385703 0.31040093 -0.04134905
000260 05 31 15 3c 52 9c 2b be f7 d1 5c bf 6f f8 1d 3f
       0.009105925 -0.1675885 -0.8625788 0.61707205
000270 af 59 3d bf c6 4d 06 be 8a a9 7c 3e e1 d1 34 bd
       -0.7396497 -0.13115606 0.24674049 -0.04414547
000280 ff 80 8a 3d b9 25 e6 be ef ee 05 be cb fa 01 bf
       0.06762885 -0.44950655 -0.13079427 -0.50773305
000290 67 6f fe 3d 36 8b 0a bf da fe d3 be 88 6c 2f 3e
       0.12423592 -0.5411867 -0.41405374 0.17131245
0002a0 11 77 52 3e 0c 70 e7 be 4d ea 0e bf c8 e5 89 be
       0.20553233 -0.45202672 -0.55826265 -0.26933122
0002b0 27 4d 7a bd 5c e6 85 3d 2f 6a 80 3e ae 8a 06 bd
       -0.061108734 0.06538078 0.25081012 -0.0328471
0002c0 29 82 99 3d 0a 7f 2f be da 49 f4 3e 9d 20 57 3e
       0.07495529 -0.17138305 0.47712594 0.21008535
0002d0 a7 1a fb 3e 25 bd 3f 3e a7 92 f9 bf 47 74 b7 bf
       0.49043772 0.18724497 -1.949788 -1.433236
0002e0 6e 53 37 3e 23 7c 9a be 82 c3 bd bd eb fb 66 3d
       0.1790292 -0.30172834 -0.09265806 0.05639259
0002f0 52 4d 7b bd c9 67 7f 3d 6e 48 1c be ff f1 96 3d
       -0.061353035 0.062354837 -0.15262005 0.07370376
000300 a6 d0 f0 bd 60 92 63 3e 19 e2 3e 3e 53 9b 3c be
       -0.117585465 0.22223806 0.18640937 -0.18418626
000310 51 ca 06 bf 93 3d 84 3e 58 f7 8f bd 34 67 6b be
       -0.5265246 0.25828227 -0.07029599 -0.22988588
000320 05 37 75 bd 1f 96 86 3e 6e d7 30 3e 76 fd 69 3e
       -0.059866924 0.26286408 0.1726968 0.22850594
000330 94 b5 35 bf 13 13 5e 3e 9e 42 a0 be 69 b4 a4 3e
       -0.7098019 0.21686964 -0.31300825 0.32168892
000340 39 fe f4 be 39 fa e0 bd 71 ff 1b bf 1c e2 c6 3d
       -0.47850206 -0.10985226 -0.6093665 0.09711096
000350 a4 bd f3 3e ea ed 1c be 54 dc 77 bd 34 37 57 bd
       0.47605622 -0.15325132 -0.060512856 -0.05254288
000360 1a 93 52 be 28 c8 d1 bd 12 9d a9 3e dc 46 bc 3c
       -0.20563927 -0.10243255 0.33127648 0.022983007
000370 7c 85 4a 3e ab ac 87 bd a2 24 17 3e 07 e2 01 be
       0.19777483 -0.06624731 0.14760068 -0.12683879
000380 bd b3 75 3f b0 96 2e 3e 2c 50 16 3f 36 7b 20 bf
       0.95977384 0.1704967 0.5871608 -0.62688005
000390 ce d9 08 3e a1 57 7e 3e e9 09 88 3d 19 0f 15 3e
       0.13364336 0.24838115 0.06642515 0.1455654
0003a0 dd e9 b6 3d e3 4f 72 3e 2b f6 3c be d0 fd 21 3e
       0.08931325 0.23663287 -0.1845328 0.15819478
0003b0 e7 b6 83 be ff 2d 03 3d d8 1d 6d bf 26 74 0f 3e
       -0.2572548 0.032026287 -0.9262366 0.14009151
0003c0 3f 38 f1 be 4b 99 18 bf 64 47 69 3e e1 4e 7d be
       -0.47113225 -0.59608907 0.2278114 -0.24737121
0003d0 0b f7 a1 bc 6c 61 2f bf 2f da 88 be 84 ab 35 bf
       -0.01977112 -0.6850803 -0.2672896 -0.7096484
0003e0 22 75 1f 3e 29 56 a1 3d 74 a1 2d be ca 66 2b bd
       0.15572026 0.07877762 -0.1695612 -0.041846074
0003f0 62 0f c2 3e bd 8b 41 bd 75 07 41 be 1b 2c dd 3d
       0.3790236 -0.047252405 -0.18850501 0.10799428

fc1.bias f4 [256]
000000 ac c7 0d be da c1 57 be 6e 04 02 3f 8f 80 1c bf
       -0.138457 -0.21070042 0.5078801 -0.61133665
000010 81 a4 d7 be 46 1b 09 be 68 7d 97 3d 80 7e 62 3d
       -0.42117694 -0.1338931 0.07396966 0.05529642
000020 6a 3f 51 3d bd 2c 21 be ba 11 29 3d 7d d4 8a be
       0.051085867 -0.15739723 0.04127667 -0.2711524
000030 72 ae b8 bd 30 95 8f be 1e 76 72 be bd 3f 35 be
       -0.09017648 -0.2804351 -0.2367787 -0.17700095
000040 ec 70 1d bf 58 4e 95 be de ff 5b be 08 53 84 be
       -0.6150043 -0.29161334 -0.21484324 -0.25844598
000050 48 83 9c be 2b 82 ad be 46 6d be be 30 db 16 bf
       -0.3056891 -0.33888373 -0.37192744 -0.58928204
000060 93 05 ab be 72 d0 57 bc d0 26 25 3e 34 7e 14 bf
       -0.3340269 -0.013172256 0.16128087 -0.5800507
000070 32 4f 0b bf bb 33 15 be b6 3f 99 3e 19 a9 6f be
       -0.5441772 -0.14570515 0.2993142 -0.2340435
000080 2f 1a 18 be 75 9d 37 3e 49 96 5f 3e ec 7b 32 3e
       -0.14853738 0.17931159 0.21834673 0.17430085
000090 41 f2 00 be 2d 97 5d bd 28 1c 25 bf 43 2c 1c be
       -0.12592413 -0.05409925 -0.6449609 -0.1525126
0000a0 48 3e a7 3e 89 df a4 3d 88 81 89 bd d0 64 c8 be
       0.32664704 0.080504484 -0.06714159 -0.39139414
0000b0 e2 36 c1 be 33 0c 43 3e 4c ad 0e bf 9f 63 3e be
       -0.37737185 0.19047622 -0.5573318 -0.1859269
0000c0 fd 3a b5 be ca 52 a6 be 07 17 83 3e 1d 2d 5c 3e
       -0.35396567 -0.32485038 0.25603506 0.21501584
0000d0 d0 82 43 3e 12 07 85 bc a3 43 52 3e dc b5 83 3d
       0.1909287 -0.016238723 0.20533614 0.06431171
0000e0 44 dd 25 3e 6a 35 01 bf 15 c6 b3 3e b4 51 90 be
       0.16197687 -0.5047213 0.35112062 -0.28187335
0000f0 e1 12 55 be de 6e 07 3e 93 37 04 be 7e 1d c5 be
       -0.20807983 0.13225886 -0.12911825 -0.38499063
000100 88 05 01 be fe 60 9e bd 71 87 31 be 22 d0 3f 3e
       -0.12599766 -0.077333435 -0.17336823 0.1873174
000110 90 0a 92 be 11 ad 81 bd 06 c6 19 be 28 6b c5 3e
       -0.28523684 -0.06331838 -0.15016946 0.38558316
000120 c5 01 f7 3c e4 50 c6 3c 12 c2 48 bf 9c 59 22 3e
       0.030152211 0.024208494 -0.7842113 0.15854496
000130 64 15 8f 3e 01 6b 73 3e ff c5 ab 3d 58 a0 03 bf
       0.27946007 0.23771288 0.08387374 -0.5141654
000140 44 54 65 3c 02 a9 8d 3e 12 cd 12 be 91 ce ed bc
       0.013997141 0.27668005 -0.1433604 -0.029029163
000150 89 d0 55 3d 30 e5 8b be b3 56 e0 3c 11 ae df bd
       0.052200828 -0.27323294 0.027385091 -0.109218724
000160 c7 7c e9 be 1c 6f 75 be 5b 5f 88 3e a9 bd d7 be
       -0.4560301 -0.23968166 0.2663525 -0.42136887
000170 f8 71 31 bd 4d 77 28 3e 99 a6 21 3e 94 76 b0 be
       -0.04332158 0.1645176 0.15786208 -0.34465468
000180 98 63 07 3e db bf 5a bd f9 54 08 3d 56 7b 17 be
       0.13221586 -0.053405624 0.03328416 -0.14793143
000190 ce c6 e5 be fc 51 c5 3e 9a 3b 61 3e 83 d3 08 3d
       -0.44878238 0.38539112 0.21995392 0.03340484
0001a0 e3 71 81 be 95 8c fd bc 1d 30 09 3d ff f4 74 be
       -0.252822 -0.030950824 0.03349315 -0.23921584
0001b0 83 d9 d0 be 6d 1d 8c 3d bc 18 fd be f0 1c bd be
       -0.40790948 0.0684155 -0.49432933 -0.3693614
0001c0 06 8e 7a be e9 f2 34 3e 7c 5e 61 3d 58 0c 4b be
       -0.2446824 0.17670788 0.055021748 -0.19828928
0001d0 74 69 fc 3d 56 07 d1 be cf 84 22 bc b5 be a4 bd
       0.12324801 -0.4082591 -0.009919359 -0.08044187
0001e0 00 7e 99 be 20 00 14 3f 2c 14 b3 be 7d 05 04 bf
       -0.29978943 0.5781269 -0.34976327 -0.51570874
0001f0 2d 7b 09 be 42 5e 06 bf be d9 3c 3d 94 7d 55 bf
       -0.13425894 -0.52487576 0.046106093 -0.8339474
000200 08 89 25 be d8 ef ed bc eb 57 0c bf 6b 70 8a be
       -0.16165555 -0.02904503 -0.5482165 -0.27038893
000210 8e 52 cd be 3e 59 03 3f d5 cb 91 3c 4b a2 94 be
       -0.40102047 0.5130805 0.01779739 -0.2903007
000220 3b ef e5 be 64 32 17 be a2 7a ae 3e 77 db 78 bd
       -0.4490908 -0.14765316 0.34077936 -0.060756173
000230 49 f8 b1 bd 8b 69 7e bc 78 1b ea be d7 c4 c8 be
       -0.08689935 -0.015528093 -0.45724082 -0.39212677
000240 ca f6 a5 be f7 d0 77 3e e6 7e 62 3e 56 ce 87 be
       -0.32414848 0.24200808 0.2211872 -0.2652461
000250 4a bc ef be 2b b9 b8 be c8 42 6d 3e 90 e9 3d bd
       -0.4682334 -0.36078772 0.23170006 -0.04636532
000260 a0 2a 01 3e 19 35 17 be e8 3f b9 3d ff 09 51 be
       0.12613916 -0.14766349 0.09045392 -0.2041397
000270 d9 60 6e be 04 56 bf 3b 7b 14 78 3c 35 d4 62 be
       -0.23279132 0.0058391113 0.015141602 -0.22151263
000280 69 d0 8b be d9 13 46 be bd 8b 83 3e ee 1c 88 be
       -0.27307442 -0.19343509 0.2569255 -0.26584572
000290 36 ca b0 3e f4 f4 70 bc 7c a4 fc 3c 2e a1 b3 be
       0.34529275 -0.014706839 0.030840151 -0.35083908
0002a0 d5 f0 45 bd b5 ee b5 be ed 34 67 bd 01 6f 80 be
       -0.04832538 -0.35533682 -0.05644696 -0.2508469
0002b0 09 7f d5 be d9 5a 1c 3e ed 70 7f bd 1f 8f 98 be
       -0.41698483 0.1526903 -0.062363554 -0.29796693
0002c0 c0 6c e3 bc 3d c7 90 3d 1e 47 5b be 5b 78 29 be
       -0.027761817 0.07069252 -0.21413848 -0.16549818
0002d0 d1 db 0d be 30 3c b2 3d 09 cc a7 3d c3 46 6d be
       -0.13853385 0.08702886 0.081932135 -0.23171525
0002e0 13 2e 5c 3e 91 ff 1c 3d 2f 69 e5 bb b7 2b 08 be
       0.21501951 0.038329665 -0.0070010643 -0.13297926
0002f0 24 0d a1 3e 0d 56 3f 3e 03 cb dc 3e 1f 4a f4 3d
       0.31455338 0.1868517 0.43123636 0.119282
000300 50 38 e5 3d ef ff 80 bd ce 8b a2 3e 62 65 ad bd
       0.111923814 -0.062988155 0.31747288 -0.08466603
000310 46 05 72 3e 0a 4a 54 be e7 44 5b 3e e5 7e ec 3d
       0.23634824 -0.20731369 0.21413003 0.11547641
000320 a2 8d 9f be 0d 7c 0d bf 3b c6 0f bf 1b 46 49 3e
       -0.31162745 -0.5526741 -0.5616185 0.1965565
000330 19 dc 9c 3c 6b 6a 85 3e 87 9d 92 bd 61 20 43 3c
       0.01914792 0.26057753 -0.07158952 0.011909575
000340 27 55 0e 3e b9 eb 06 bf f3 e4 43 bf 44 83 a7 be
       0.1389967 -0.52703434 -0.76521224 -0.32717335
000350 5b 4b 20 3d b0 49 ac bd 79 7f 15 3e 91 e9 9c be
       0.039134365 -0.08412492 0.14599408 -0.30646947
000360 56 2d a2 bb 3c 72 d2 3c e2 ea bb bd 9a 43 5c 3d
       -0.004949252 0.025689237 -0.0917566 0.053775407
000370 b2 29 cb be 0f f4 8d bc 91 9d a1 bd b1 d5 c4 3a
       -0.39680248 -0.01732829 -0.078913815 0.0015017298
000380 dd dd b3 be a3 53 ca 3e 2d ea d9 3e 3b 15 50 bf
       -0.35130206 0.39516935 0.42561474 -0.81282395
000390 2c bc a3 be 7f 75 5e be 85 36 f0 bd 54 64 3f be
       -0.319795 -0.21724509 -0.11729149 -0.18690616
0003a0 0a 2f 7f be e8 2a 93 3e f1 08 7e be 0a 86 9a 3e
       -0.24920288 0.28743672 -0.24808098 0.3018039
0003b0 0e d2 8c be a1 f4 80 be 31 c9 22 bf ab 02 df be
       -0.2750401 -0.25186637 -0.63588244 -0.43556723
0003c0 36 d0 2a be 43 46 9b be 38 fb a7 be 73 55 0c 3e
       -0.16680989 -0.30327043 -0.32808852 0.13704471
0003d0 53 1d 71 3e 66 a4 59 3e ad d5 7e be 8b d6 75 be
       0.23546343 0.2125412 -0.24886198 -0.24007623
0003e0 0d 05 46 3e 3f c6 14 be be 56 a8 3e c6 41 98 3e
       0.19337864 -0.1452875 0.3287868 0.2973768
0003f0 f0 bf b3 3e db 3e c2 3e 10 8d 53 be 2e 25 23 bd
       0.35107374 0.3793858 -0.2065928 -0.03983038

fc2.weight f4 [256, 256]
000000 6b a3 98 3e 0b 21 74 be df f1 53 bd 93 90 8b 3f
       0.29812178 -0.2384073 -0.051744338 1.0903496
000010 7d 45 99 be 77 8a 3f 3e 41 e0 dc bd c9 35 84 3e
       -0.29935828 0.18705164 -0.107849605 0.25822285
000020 ff df 55 3e 02 ef 26 be 6b bb d9 3e 10 37 55 be
       0.20886229 -0.16302112 0.425258 -0.20821786
000030 af 0f af 3c da 79 12 be ed 12 7a bd ef 84 bc 3e
       0.021369783 -0.14304295 -0.061053205 0.3682017
000040 36 35 a8 bc dd 09 d3 3e 1e 48 5d be a9 2e 6a bf
       -0.020533185 0.41218463 -0.21609542 -0.9147745
000050 eb 14 3c 3e f4 55 e4 be d7 09 41 be 0e 39 22 bf
       0.18367355 -0.44596827 -0.1885141 -0.6336831
000060 e5 67 ec be 18 ff 70 be cd 2a 97 3d 25 ea d1 be
       -0.46173015 -0.2353481 0.073812105 -0.4099895
000070 f0 2f d5 be 8a 14 d8 be d9 53 62 3f 14 a2 b3 3e
       -0.41638136 -0.4220317 0.8840919 0.35084593
000080 e4 88 a6 3e fe 17 7b 3e 1e 4b 23 be 8b 00 94 3d
       0.32526314 0.24520871 -0.15946624 0.07226666
000090 e8 0a 65 bd ca 5b d9 3d 62 4e e9 3d 86 46 d6 3e
       -0.055918604 0.106132105 0.113919035 0.4185068
0000a0 1f 00 f6 3e 1a f3 11 3e 61 69 db 3d 59 18 b9 3d
       0.48046967 0.14252892 0.10713459 0.09037847
0000b0 61 d0 ab be bb e8 16 be 63 22 dc 3e 3a 89 10 3c
       -0.33557418 -0.14737217 0.42994985 0.00882178
0000c0 3a 06 0b be 08 cf 21 3c bc 87 2f 3e 90 7a 5e 3e
       -0.13576594 0.00987602 0.17141622 0.21726441
0000d0 8e 57 ec 3e be 92 36 bd 49 6d 24 3e d0 e6 14 3e
       0.4616055 -0.044573538 0.16057314 0.14541173
0000e0 c4 9c 16 3f af 82 a7 be d4 7d 73 3e 6e 10 3c 3e
       0.58832955 -0.3271689 0.23778468 0.18365642
0000f0 25 25 a6 be 70 2e 43 be a1 0c 3b 3d c2 d4 67 be
       -0.32450214 -0.19060683 0.04566634 -0.22639754
000100 79 b8 24 3e c1 f2 b8 3c b4 aa da 3e 08 05 3b 3f
       0.16085996 0.022576692 0.4270836 0.7305455
000110 78 c7 01 bf 6b 18 22 3e 2b e4 30 bd 17 5a e7 3d
       -0.5069499 0.15829627 -0.043186348 0.1129648
000120 6f f7 62 bf 62 d5 dc 3b ed e1 87 3c 14 a1 41 be
       -0.88658804 0.0067393044 0.016587222 -0.18909103
000130 6a 5a ce 3e 28 6b 2c bf 39 be c4 bd 99 3d 4b be
       0.40303355 -0.6735101 -0.096065946 -0.19847716
000140 5e 27 77 3d 3e 52 1b 3e 4a 77 54 3e 88 9b 5e 3b
       0.060340278 0.15168092 0.2074863 0.0033967216
000150 1c 3a 27 bf fb 67 6b be ed cc 0b bd 7c 40 bf be
       -0.6532304 -0.22988884 -0.03413098 -0.37353885
000160 2c 95 22 be a6 a3 2b 3d ae e2 ef 3c b8 bf a2 be
       -0.15877217 0.041904114 0.029282894 -0.31786895
000170 4d b8 0b be 05 63 02 bd d8 c1 bf bc 47 30 00 3e
       -0.13644524 -0.031832714 -0.023407862 0.12518416
000180 83 22 87 be ee 1a 95 be 44 e2 0e be bd f2 72 be
       -0.26393518 -0.29122108 -0.13953501 -0.2372541
000190 c3 5a ed be a3 f2 82 3e ff 11 49 be a7 0c f6 be
       -0.46358308 0.25575742 -0.19635771 -0.48056528
0001a0 2b 2a 02 be 73 a1 a1 3e a9 b8 35 bd fc 40 34 bc
       -0.12711398 0.31568488 -0.04436556 -0.011001822
0001b0 48 62 92 be 76 15 69 3e 26 eb 47 bd 59 48 1c be
       -0.28590608 0.22762093 -0.04880824 -0.15261973
0001c0 4b 1b ae 3d 90 dd 61 be c5 e4 e5 bb fc 29 35 bd
       0.085012995 -0.22057176 -0.007015797 -0.044229493
0001d0 7b 96 81 3e 7d 28 d8 be f2 0a 49 be 69 e9 31 3d
       0.2531012 -0.4221839 -0.19633082 0.043435488
0001e0 89 35 03 bf 89 16 ed be c6 9a e2 3e f3 5c f4 3d
       -0.51253563 -0.46306255 0.44258708 0.11931791
0001f0 e3 52 12 bd 84 39 45 be fa f0 44 be de ef 95 3e
       -0.03572358 -0.19260222 -0.1923255 0.29284567
000200 9e b5 c0 3e 70 dc 7b 3d 51 6b db be 74 fe 58 3d
       0.37638563 0.061489522 -0.42855313 0.05297704
000210 22 0b 9f bd d6 83 08 bf 78 ab 02 be 90 96 86 be
       -0.07765795 -0.53326166 -0.12760723 -0.26286745
000220 df e5 15 be ee b3 9a be e9 a5 1d 3d 8d cd 77 3e
       -0.1463847 -0.302154 0.038488302 0.24199505
000230 a4 28 58 3e 98 d7 48 bc 03 2f 81 3d 95 62 15 bf
       0.21109253 -0.012258433 0.06307795 -0.5835355
000240 91 0b 01 bf 7d b7 f2 3e 24 b3 08 be 5c 34 a8 be
       -0.50408274 0.47405615 -0.13349587 -0.32852447
000250 7a 1d 98 bd 00 ee e9 bd 5a b1 3d 3e 9c 08 6f 3e
       -0.07427497 -0.11422348 0.18524686 0.23343128
000260 d2 af 71 be 7b e3 cc 3d e1 ae f1 3e f1 7f be be
       -0.23602226 0.10004326 0.47203735 -0.37206987
000270 3e 5b 41 be c6 e6 c7 3e ab b7 3f bd c4 29 19 bc
       -0.18882462 0.39043254 -0.04680602 -0.009348337
000280 9a e9 97 3d e4 f1 a3 be 9a 63 b6 bc a3 2a 76 3e
       0.07417603 -0.32020485 -0.02226429 0.24039702
000290 41 e9 0f 3e 46 0b a0 bc 7c 78 cf 3d a9 2d 14 3e
       0.14053823 -0.019536626 0.101304024 0.14470543
0002a0 ee 5d 22 be d9 4c 1b 3f e3 31 66 be f0 14 96 be
       -0.15856144 0.60664135 -0.22479968 -0.2931285
0002b0 49 33 cb 3e b2 5f 92 3e 56 b9 80 3d d7 7b 08 3e
       0.39687565 0.28588635 0.0628535 0.13328491
0002c0 e8 f7 cd bd 80 c1 36 be 68 c2 a9 3c 0d 84 05 3e
       -0.1005705 -0.17847252 0.020722583 0.13038655
0002d0 79 55 9f be ad e6 87 3e d9 d1 1e be d9 25 61 3d
       -0.31119898 0.2654318 -0.15509738 0.054967735
0002e0 61 96 fa 3e ce 8a 00 3e ca 7f 50 be ae 2f 86 be
       0.48942855 0.1255295 -0.20361248 -0.26208252
0002f0 19 45 aa 3d a1 80 95 3e 01 9a d3 3c 90 95 2a 3e
       0.083139606 0.291997 0.02583027 0.16658616
000300 62 16 96 3c 72 9b 76 3e 11 c3 b8 3d 96 5c 11 be
       0.01832122 0.24082735 0.09021581 -0.14195475
000310 bc a0 4f be 87 4f 48 be d1 29 42 3e 7f 9e 0a be
       -0.20276159 -0.19561587 0.18961264 -0.13537024
000320 fd 33 9e be c7 df b7 3d 2b cd 5b bf fd ca 6d 3d
       -0.3089904 0.08978229 -0.85859936 0.058054913
000330 1c 44 3b 3e 3f 95 3c 3e 62 3c a5 be af 2e f9 bc
       0.182877 0.18416308 -0.3227263 -0.030417768
000340 ce 6c e9 be d5 be 91 3e 9f 09 8b 3c 64 92 8f be
       -0.45590824 0.28465906 0.016972361 -0.28041375
000350 ea f8 4f bd c4 b7 d2 bc 2c 23 d1 3e f3 49 b1 be
       -0.050774492 -0.025722392 0.40847147 -0.3462673
000360 c3 91 d0 be 69 e8 2a be ba 5c 26 3e 73 3a ff 3b
       -0.40736207 -0.1669022 0.1624631 0.00778895
000370 ef 15 a0 be 1a bd 82 be e0 ef 1b 3e ae 23 ed be
       -0.31266734 -0.25534898 0.15228224 -0.46316284
000380 cd 2b 85 be cd c4 ff 3e ab 05 87 3e a5 52 83 bf
       -0.2600998 0.49954835 0.26371512 -1.0259596
000390 6a 21 08 3e dc 9b 90 bd f1 76 64 3e 2a 93 3d be
       0.13293996 -0.07060978 0.22310998 -0.1851317
0003a0 d1 ee 33 bf 72 06 60 3d a9 5d a3 3d 24 b5 0b 3f
       -0.7028628 0.054693647 0.07976849 0.54573274
0003b0 24 05 f6 bd b4 45 68 be 55 7e 88 be d7 5f 25 3d
       -0.12012699 -0.2268284 -0.26658884 0.040374603
0003c0 3f 64 96 3e 19 ba c6 3e c0 21 9d be b3 a8 f2 bd
       0.29373357 0.38813856 -0.30689812 -0.11848583
0003d0 da 60 5f 3d cf f0 cf bc 8b 08 23 be 2d eb a0 bd
       0.054535724 -0.025383381 -0.15921228 -0.07857356
0003e0 64 ac 35 bc 7a b4 af 3e 64 72 2b 3d 1a 9e 52 3b
       -0.011088464 0.3431738 0.04185714 0.0032137693
0003f0 7a 69 db 3e d4 ef b1 3d c1 65 f1 be a9 a5 e9 3e
       0.4285391 0.08688322 -0.47147945 0.456342

fc2.bias f4 [256]
000000 7b c9 0a 3e a1 b5 61 3e 33 fd 98 3d 89 73 4b 3e
       0.13553421 0.22041942 0.07470169 0.19868292
000010 52 04 7e 3e d4 5f 38 3c 08 12 68 be 18 73 b4 bd
       0.24806336 0.011253316 -0.22663128 -0.08811015
000020 5c eb 18 3c 52 8e 84 be ec 75 08 3e e0 4f 55 3e
       0.009333458 -0.25889832 0.13326234 0.20831251
000030 ea 1e 37 3e f2 ae a7 3e b6 32 46 be 78 e5 4a 3e
       0.17882887 0.3275066 -0.19355282 0.19814098
000040 c0 60 2b 3e b2 ae 33 3e bc 8f f9 bd fe 5f aa 3d
       0.16736126 0.1754711 -0.12185618 0.0831909
000050 0c 4e 96 3d 68 01 af 3e 15 71 77 bd 8e c8 55 3e
       0.07339105 0.3418076 -0.060410578 0.20877287
000060 9a b0 12 be 24 29 87 bd 5a 45 40 be 43 33 3f 3e
       -0.1432518 -0.06599644 -0.18776456 0.18671899
000070 ac c0 3d 3e b6 13 a3 bd fb bc 9a 3e df 5a 9f 3e
       0.1853053 -0.07962744 0.30222306 0.31124017
000080 a3 5e c5 bd fb b7 03 3e 42 31 52 3d b6 5a 7c 3e
       -0.09637191 0.12863152 0.051316507 0.24643978
000090 67 cc 27 bd 22 7d 98 3e e7 47 3e 3e d3 c9 cd 3e
       -0.040966418 0.2978297 0.18582116 0.40193042
0000a0 db de 5d 3c 71 c9 e7 bc 90 67 49 bd a3 b1 17 3e
       0.013541902 -0.028294297 -0.04917103 0.14813857
0000b0 e4 cb 86 3e 27 2e 24 3e d9 39 5f bb f1 05 58 bd
       0.2632743 0.1603323 -0.003406158 -0.05274004
0000c0 b3 ee 50 3e 39 64 b5 bd 87 10 7a 3e 62 bf 7d 3e
       0.20403557 -0.088570066 0.24420367 0.24780038
0000d0 86 fb 15 3e d1 91 6c 3e 98 12 42 3e e1 c8 cc bd
       0.1464673 0.231025 0.18952405 -0.09999252
0000e0 3a 02 4d 3e b1 3d 33 3e 0d e1 11 bd 67 08 3e bd
       0.2002038 0.17504002 -0.035615016 -0.04639473
0000f0 f7 95 2c 3e bc fa 23 3e b8 67 1f bc 06 bb cb 3e
       0.16854082 0.16013616 -0.009729318 0.39791125
000100 58 33 94 3e 1a a5 24 3c 3c b1 a5 3d 94 9d 49 3e
       0.28945422 0.010049129 0.080904454 0.19689018
000110 37 68 95 3c c6 34 c6 3d 4f 3e 12 3d fc 1e 1f 3f
       0.01823817 0.096780345 0.035703953 0.62156653
000120 30 c6 5a bc 48 23 cf bd 95 50 91 be 10 15 e5 3d
       -0.013352916 -0.10114151 -0.28381792 0.11185658
000130 34 05 79 3e 47 0e 09 3d 9c bb a5 3d 3e 0c a1 3e
       0.24318391 0.03346088 0.08092424 0.31454653
000140 e7 0c c3 3d a7 51 1b 3e 17 ed 04 bc b4 30 cf be
       0.09523945 0.15167867 -0.008113167 -0.40466845
000150 76 b2 02 3d 97 d0 36 bd ae 0d 15 bd 98 f2 31 3e
       0.031908475 -0.04463252 -0.03639 0.17377698
000160 2c d4 df 3d d1 58 cc bd 88 d1 39 3b 0d b3 7c bd
       0.109291404 -0.09977878 0.002835365 -0.061694194
000170 06 00 52 bc 62 f5 b3 3e fb 10 89 3e 9c 07 fd 38
       -0.012817388 0.3514815 0.26770768 0.000120653975
000180 82 75 7a 3e bb 7e 74 be 73 7d 1a bd 62 d1 3b 3e
       0.24458888 -0.23876469 -0.037717294 0.18341592
000190 63 b6 00 3e f8 f1 ea 3e d4 61 88 3e dc d5 27 bd
       0.12569575 0.45887733 0.26637137 -0.040975437
0001a0 fa 40 61 3d f5 96 29 3e 97 69 79 bd de 4a b1 3e
       0.054993607 0.16561492 -0.060891714 0.34627432
0001b0 95 f8 41 be 83 4f 5f 3e 88 59 80 3e c6 8a 77 3d
       -0.18942483 0.21807675 0.25068307 0.06043508
0001c0 4e cb 05 3e c1 a5 c7 3e 7c 07 84 bc db 91 70 3e
       0.13065836 0.38993648 -0.01611685 0.2349314
0001d0 25 b6 99 bd 0f ab bf 3e 3e ae a7 bd 2b ba 29 3e
       -0.075054444 0.37435195 -0.08187531 0.16574924
0001e0 b6 7c c6 3e 17 9e a3 bd dc 77 03 3c bb bd c4 3d
       0.38767022 -0.079891376 0.008024182 0.09606501
0001f0 8e 3c ab 3d e8 e5 8e 3e 55 b7 3d 3e c7 0c a9 3d
       0.08361159 0.2790978 0.18526967 0.0825439
000200 f8 a2 ab bd 54 60 02 3e 73 01 88 3e 62 b6 83 3e
       -0.08380693 0.12732059 0.26563606 0.25725085
000210 17 3f 18 3e 45 bb 7f 3e c8 a2 bb 3e 86 01 69 3e
       0.14867817 0.24973781 0.3664763 0.22754487
000220 26 0d 4a 3d 5d 7f e0 bb 4f f1 81 bd 2a fd 11 3c
       0.049328946 -0.0068511204 -0.06344854 0.008910457
000230 6e e1 b9 3e 90 d7 97 bb a2 e7 56 bd 58 7a e9 3c
       0.36304802 -0.0046338513 -0.052466996 0.02850072
000240 03 6c 6c 3e 97 32 dc 3d 86 e7 a2 3c 7b f2 4c 3e
       0.23088078 0.10751837 0.01988579 0.20014374
000250 da 47 76 3e 0a eb 35 bd 83 f0 2d 3e 74 98 84 bd
       0.24050847 -0.044413604 0.16986279 -0.064743906
000260 87 3c 06 bd d4 97 62 3c df f8 0a bd f4 7a 7f bd
       -0.032772567 0.013830144 -0.03392875 -0.062373117
000270 da 04 9b 3e 01 4b 37 be b1 e2 6a 3e 5b c3 49 3e
       0.3027714 -0.17899705 0.22938038 0.19703428
000280 44 41 61 3e 62 d4 41 bd 8f 89 a9 3e e7 b4 0e 3e
       0.21997553 -0.047321685 0.3311276 0.13936196
000290 1a a9 f1 bc 0a 9b 87 3e 6b d2 57 3e 12 d4 8f 3e
       -0.02949958 0.26485473 0.21076362 0.28091484
0002a0 8c 6e 17 bd c4 db c5 3d c4 44 0e be b6 0c ca 39
       -0.03697066 0.096610576 -0.1389342 0.00038537913
0002b0 c8 22 3c 3a 6f 69 99 bd 1e 43 81 3e 68 a8 92 bd
       0.00071768137 -0.07490813 0.2524652 -0.07161027
0002c0 3f d1 90 be 40 74 a6 3e b7 d8 9b be dd 22 24 3d
       -0.28284642 0.32510567 -0.30438778 0.04007231
0002d0 39 07 0a be d6 32 5a 3e 7a b5 1f be 36 cf 4c 3e
       -0.13479318 0.21308455 -0.15596572 0.2000092
0002e0 c3 9e e4 bd 2e 8d 0c 3e 76 be f4 3d 0b bb 7c bd
       -0.11163094 0.13725731 0.1195039 -0.061701816
0002f0 da 86 f7 bc 79 66 84 3e 7e 4e 50 3e 99 8a 92 3e
       -0.03021567 0.2585943 0.20342442 0.28621367
000300 f2 76 9a 3e d3 72 81 3e 7d b5 97 bc ac 40 6a be
       0.30168873 0.25282916 -0.018519158 -0.22876233
000310 7e 4c 9d be 16 c4 41 3e ec 96 8c 3e 02 97 6b 3d
       -0.3072242 0.18922457 0.27458894 0.05751706
000320 25 8e 6c bd 00 3a f6 bc 82 13 17 3e b3 e6 a4 bb
       -0.057752747 -0.030056953 0.14753535 -0.0050323843
000330 bd 91 0f bd 3b 91 6a 3c 5c d8 8c 3e 23 ac 94 3d
       -0.035051096 0.014316852 0.2750882 0.07259395
000340 b2 6e 01 3e 50 44 0b be b3 d3 0a bc c6 82 84 bb
       0.12639883 -0.13600278 -0.008473325 -0.0040439097
000350 a6 bb 77 3e 96 75 4e bd 87 b6 ff 3c e8 f9 96 3d
       0.24192676 -0.050405107 0.031214966 0.073718846
000360 8d 8b 9b 3e 92 8e 71 3e 48 f6 8e bd c2 cf f7 bd
       0.30379906 0.23589543 -0.06980568 -0.121001735
000370 c1 de 57 bd 30 6f 7e 3e b7 fe 32 bc 07 2c 46 3e
       -0.05270267 0.24847102 -0.010924987 0.19352733
000380 7b e5 96 3e 60 87 14 bd d8 bf d3 3d d3 1b ae 3e
       0.29471955 -0.036261916 0.10339326 0.34005603
000390 e9 1b 58 3e f0 40 9e 3d f7 23 4a 3e c3 4d 90 bd
       0.21104397 0.077272296 0.19740282 -0.07046082
0003a0 0a 5e 28 3e ee 36 30 3e 1d 30 80 bd ca 71 25 be
       0.16442123 0.17208454 -0.06259177 -0.16156688
0003b0 df 02 81 3e f9 cc d9 bd 78 cf 07 3e 55 a3 4c 3e
       0.25197503 -0.106347986 0.13262737 0.19984181
0003c0 79 87 a0 bd d6 e4 bd 3d 3e 91 0c bc 3e 58 86 3e
       -0.07838339 0.092721626 -0.00857955 0.26239198
0003d0 df a1 7c 3e 19 ae 4b 3d 64 bc d7 bb d7 e7 8e 3e
       0.24671124 0.04972658 -0.006583737 0.27911255
0003e0 33 10 e8 bd f4 e6 32 3e c4 59 6a 3d c3 7a 94 3e
       -0.11331215 0.17470914 0.057214513 0.2899991
0003f0 6b 8d a5 3e 05 d6 03 3e 0d 12 08 3e 14 c0 82 3e
       0.32334456 0.1287461 0.13288136 0.2553717

fc3.weight f4 [70, 256]
000000 b4 d5 01 3c 58 a8 6b 3a 7c 29 94 3a 39 e8 1e bc
       0.007924486 0.0008989624 0.0011303867 -0.009698921
000010 39 d4 f5 bd 7e 03 5a bd 55 53 c0 bc 37 ce 8c 3d
       -0.12003369 -0.053225987 -0.023477236 0.0687527
000020 6f de 6a 3b 97 ac 80 bb c2 94 eb 3b 9b 60 f7 bc
       0.0035838147 -0.0039268243 0.007189364 -0.030197432
000030 36 54 e9 3c 2a a9 8d be ba 89 c4 bb 42 23 0c 3d
       0.028482538 -0.27668124 -0.0059978636 0.034213312
000040 72 54 6a 3c 8e fe 39 bc 41 1d 76 bc e0 8a aa bc
       0.01430236 -0.0113521945 -0.015021623 -0.020818174
000050 07 bf 8a bd 93 c9 ac bb 40 a6 29 bd 39 58 20 3c
       -0.06774717 -0.005273053 -0.041418314 0.009786659
000060 4c f5 79 3a 7a 94 82 bc ad 40 06 bc c9 31 8f bc
       0.0009535148 -0.01593994 -0.008194131 -0.017479794
000070 bd 55 62 bc ec a2 e6 bd fb 82 49 3d a6 c3 97 bb
       -0.013814387 -0.11261544 0.04919718 -0.0046314774
000080 2b 61 03 bd de 7c 44 bc 52 dd cc ba ff 12 32 bb
       -0.03207509 -0.011992661 -0.0015629923 -0.0027171967
000090 99 ed e5 3c ce c3 b9 bc 71 25 79 3c a3 73 55 bd
       0.028067397 -0.022676375 0.015206681 -0.052112233
0000a0 e4 b0 a9 bb 5f d4 62 3d 3f d8 2b bd 1b c9 36 bc
       -0.0051785577 0.055378314 -0.041954275 -0.011156346
0000b0 05 ed c0 3d 80 80 8a bb 6a 3f 37 bd 08 7c f6 3c
       0.09420208 -0.004226744 -0.04473821 0.03008844
0000c0 75 25 37 bc 5f 56 37 3d 3b 05 8a bd 3e 50 15 3d
       -0.011178364 0.044760104 -0.06739279 0.036453478
0000d0 6d f4 43 bc e9 38 ac bc 3e f2 48 bc ca 93 81 3d
       -0.011960131 -0.02102323 -0.012264786 0.06327017
0000e0 1c 62 eb be 3d bc e6 bb 26 c3 8b bc a5 ec aa 3c
       -0.4597329 -0.0070414827 -0.017060827 0.020864794
0000f0 48 e6 a7 3c 03 11 91 3b b4 23 c1 ba df 84 33 bc
       0.020495549 0.004427077 -0.0014735372 -0.010956972
000100 cf 2e 9f bc dc e6 3a 3c 3b 8b e3 3d 9c f3 a6 3a
       -0.0194315 0.01140758 0.111105405 0.0012737396
000110 8e 06 9d bb 97 c3 68 bc 0b ef d2 bd 3c ad 83 3e
       -0.004792041 -0.0142067885 -0.102995 0.25718105
000120 52 c8 0d 3d c5 d2 89 b9 26 4c 43 3a dc 5c c2 bc
       0.03461487 -0.00026287712 0.00074500067 -0.02372592
000130 3e 1f 24 3d ca fd 02 38 0b 10 2a 3d 48 8e ad be
       0.040068857 3.1230775e-05 0.041519206 -0.33897614
000140 b9 6b e2 ba 14 89 6f 3b f6 59 64 bd 64 40 82 bb
       -0.0017274535 0.003655021 -0.055749856 -0.003974961
000150 63 9c c7 bd 85 48 03 be db a7 bf 3d b5 17 f8 ba
       -0.09746625 -0.12820633 0.09358188 -0.0018927964
000160 3d 07 b7 3a 3c 2d 30 bb 60 b8 b7 bc 73 e2 1e bd
       0.0013963949 -0.002688243 -0.022426784 -0.038790178
000170 fd 17 9e bb 76 49 2f 3c 9a a6 28 bb f3 b2 d6 3c
       -0.004824637 0.010698667 -0.0025734068 0.026208377
000180 a0 a5 bc 3d ab 24 44 ba 84 88 42 bd ae 54 50 bd
       0.09211278 -0.00074822706 -0.047493473 -0.050862007
000190 b5 af f4 3b da c3 49 3d 11 e6 04 bc f1 e0 2c bd
       0.007467235 0.049259044 -0.008111493 -0.04220671
0001a0 42 9d ee 3c 9a 3b 3a 3c 3a fd d1 bc 86 e0 92 3c
       0.02912772 0.011366749 -0.025633443 0.017929327
0001b0 3f 7d 09 3c 81 3e 91 bc 89 3c 10 bd e1 1a 99 bc
       0.008391677 -0.01773 -0.03521398 -0.018689575
0001c0 45 18 e9 bb 66 1c 6d 3c 8e f4 e7 3b 9e d2 4d bc
       -0.007113489 0.014472103 0.0070787137 -0.012562422
0001d0 f6 da 34 3d 85 a7 3b 3d 46 d3 c4 bb 29 21 81 bb
       0.04415413 0.045814056 -0.006006631 -0.0039407206
0001e0 12 51 6e bc da fe ce bd 30 e0 82 3d 24 7a f8 3b
       -0.014545696 -0.10107203 0.063904166 0.0075829197
0001f0 06 5e 1b bc 40 d2 2c 3c 08 e4 a6 3c 52 69 2a 3c
       -0.009482866 0.010548174 0.020372406 0.010401087
000200 1f f2 3a bd 9c ad 35 3c 09 98 ab bc f8 09 ca bb
       -0.04564106 0.011088755 -0.02094652 -0.006165739
000210 f1 3e 83 bb 7b 4b a0 bd 5d 2b 0a 3d 5d ec ba bb
       -0.004005306 -0.07826897 0.03373276 -0.005704446
000220 b7 8f a1 bb fc 8b a9 3b 59 1f 03 3c f6 64 3c bc
       -0.004930462 0.005174158 0.008003079 -0.01149868
000230 ab 86 9c ba 9c a0 20 bb 19 71 38 3d 83 96 d4 bc
       -0.001194199 -0.0024509793 0.045029733 -0.025950676
000240 a4 3a bc 3c d0 50 6c bc d5 a8 64 3d 72 8e 5a 3d
       0.02297718 -0.014423564 0.055825073 0.053358503
000250 82 8d 75 bc 11 64 05 3d a3 c7 1a 3c 97 8a f1 bc
       -0.014987351 0.032566134 0.009447011 -0.02948503
000260 cd e2 59 3d d0 03 4d bb 5e 79 57 3b f8 3d 01 bd
       0.05319481 -0.003128279 0.0032878737 -0.03155324
000270 51 7c 4f 3c 4e 32 52 3a 21 43 40 bc d6 6b a1 ba
       0.012663917 0.000801836 -0.011734755 -0.0012315463
000280 e9 15 34 bb 44 39 93 3c 91 90 db 3d 39 c9 bf bb
       -0.002747888 0.017971642 0.10720933 -0.005852845
000290 84 09 10 3d e1 d5 7e 3d 8e 28 0e 3c ec c0 58 bc
       0.035165325 0.06221569 0.008676661 -0.01322959
0002a0 ba d2 ad bb 3b 38 25 bc b0 47 12 bb db 17 54 bb
       -0.0053046616 -0.010084207 -0.002232056 -0.0032362852
0002b0 09 d4 ab 3c 8f d2 14 bd 0b 08 de 3b 5f 66 c1 3b
       0.02097513 -0.036333617 0.006775861 0.005902096
0002c0 32 b1 f1 39 d7 3c 06 3b 0b d3 6c bc ac fd d7 ba
       0.00046099123 0.002048304 -0.014454613 -0.0016478798
0002d0 b7 39 bb bc 1e 15 a8 3c ee 58 21 bc 03 17 59 3c
       -0.022854669 0.020517882 -0.009847863 0.013250115
0002e0 81 46 11 bc 22 dc c7 bc e8 92 7a b9 c9 f6 be bc
       -0.008866907 -0.02439696 -0.00023896585 -0.023311036
0002f0 56 60 7b 3b 0f fb 8e bc 78 94 4f bc 81 97 c3 bc
       0.0038356981 -0.017453698 -0.012669675 -0.023875954
000300 f0 4a 35 3b ef 4d 01 3d d3 2a 9d bc a2 c2 64 3a
       0.0027663074 0.031568464 -0.01918546 0.00087265123
000310 5e 2f 20 3a aa 83 14 bb 4a 5d d8 bd 33 99 15 bd
       0.0006110574 -0.0022661486 -0.105646685 -0.036523055
000320 44 7a d8 3c 89 f4 15 bd 21 03 79 bc cf be 92 3c
       0.026425488 -0.03661016 -0.0151985 0.01791325
000330 9f de b9 3c 49 d6 62 bd 44 ce 88 3d da f4 ac bc
       0.022689162 -0.05538014 0.06679967 -0.021112848
000340 27 45 d2 3b 04 b9 f5 bb b4 92 bd 3d 8b 5f 57 bc
       0.006416935 -0.007498862 0.09256497 -0.013145338
000350 b9 88 7d 3c 6c f1 d6 bc de 59 4d 3c b9 00 81 bb
       0.015474492 -0.026238166 0.012533633 -0.0039368537
000360 0d f2 0f 3d 0a 2d 0c bd 05 96 cb 3e 99 04 48 bb
       0.035142947 -0.03422264 0.39762893 -0.0030520319
000370 f5 ef 2a 3d 18 c8 1d b9 8d a8 55 3c fb a2 cc 3c
       0.041732747 -0.00015047227 0.013040674 0.024980059
000380 c8 50 85 3c d2 3f 59 3c 26 c3 c2 3b 22 2c 31 3c
       0.016273871 0.013259845 0.0059436737 0.010813745
000390 4f 75 af 3c 92 96 4e 3d ee 31 85 3d ce be 99 bd
       0.021418242 0.050436564 0.06503664 -0.07507096
0003a0 bf 1e f0 bc ae 9e c2 3a ee 9e 81 3c c4 da 7f bb
       -0.029311536 0.0014848316 0.015822854 -0.0039040307
0003b0 42 47 14 bd c8 03 ba 3a 6e 64 4b 3c ea 41 f9 3c
       -0.03620077 0.0014191801 0.012414081 0.030426938
0003c0 7e 7f 21 3d f7 2d b5 3b 2d 2d 88 bd 7c 87 50 3c
       0.039428227 0.005529161 -0.066492416 0.0127276145
0003d0 e5 62 7a bd db 03 6d ba 2a 73 2b 3d eb 29 d7 bc
       -0.06112947 -0.0009041407 0.041857876 -0.026265105
0003e0 ca 25 81 bd 41 fc dc 3c ce a5 74 bc a9 f7 06 bd
       -0.06306036 0.026975753 -0.014932109 -0.03295103
0003f0 04 a9 bb 3d d0 27 64 bc d9 a5 4f bd 9e 96 0a 3c
       0.091630965 -0.013925508 -0.050695274 0.0084587615

fc3.bias f4 [70]
000000 9a 43 06 bd b6 2a a9 3d 66 c7 3d 3d e2 74 07 bf
       -0.032779314 0.082600996 0.04633274 -0.52912724
000010 35 ac 8a be e6 75 80 3f 10 94 85 bd a2 3e 34 bc
       -0.2708451 1.003598 -0.06522381 -0.011001261
000020 ea d0 0b bd 58 a8 51 bd 93 6e e3 be da 32 45 be
       -0.034134783 -0.051185936 -0.444203 -0.1925768
000030 cf 21 48 3f 6b 42 44 3c a8 91 d4 3b bb a1 db bd
       0.7817659 0.011978726 0.00648709 -0.10724207
000040 8a 81 ba bd a2 58 cb be 73 cd 18 be 68 be 06 3f
       -0.09106739 -0.3971606 -0.14922123 0.52634287
000050 c2 3f 16 3c 47 4d 83 bb 26 6e af bd 37 06 b9 bd
       0.0091704745 -0.004007015 -0.08565931 -0.090343885
000060 77 3b a6 be f4 1c f6 bd 23 d5 be 3e f4 8f 9d bb
       -0.32467243 -0.12017241 0.37271985 -0.0048084203
000070 e5 14 8d ba 74 34 47 bd f0 29 7b bd a8 a8 8e be
       -0.0010763673 -0.048634008 -0.06131929 -0.2786305
000080 ac c1 d5 bd 3c 38 8e 3e 17 2f 16 bc 56 3c f6 39
       -0.104373306 0.27777278 -0.0091665005 0.0004696573
000090 d5 30 92 bc c6 c2 44 bd 20 0f 7a be 5b 44 9f bd
       -0.01784555 -0.048037313 -0.24419832 -0.0777671
0000a0 c5 d3 67 3e 57 0e 60 bc 91 bb 97 bb b8 b4 33 3c
       0.22639377 -0.013675294 -0.004630514 0.01096838
0000b0 b6 9e 30 bd fa e5 60 be f5 f8 33 bd fa e9 4e 3e
       -0.04312011 -0.21962729 -0.043938596 0.20206442
0000c0 72 b1 52 bc 69 f5 a2 bc 80 86 14 3d 35 2b 3d bd
       -0.012859689 -0.019892411 0.03626108 -0.046183784
0000d0 72 91 5c be 9c 8d 86 bc d1 69 44 3e ac f9 69 bc
       -0.21539858 -0.016424946 0.19180991 -0.014280718
0000e0 6c 48 39 bd 31 57 67 3d c4 25 72 bd fd 6c 6f be
       -0.045235083 0.056479637 -0.059118047 -0.2338142
0000f0 68 ea 2b b9 f0 ae 46 3e 27 0a 6b bc 2d 2a 8b bd
       -0.00016395154 0.19402671 -0.014345682 -0.06795154
000100 d6 b7 72 3d 03 f0 70 bd 07 7c 70 be d4 cf f6 b7
       0.05925735 -0.058822643 -0.23484813 -2.9422263e-05
000110 49 c4 56 3e ae 5f 80 bc
       0.20973314 -0.015670624
