results/models/trajectories_sc2_rs_n1000_model.pth (torch, 67192 bytes, 6 tensors)

network.0.weight f4 [128, 10]
00000000: 0537 57be 78ae 7fbc 3796 cdbc ec6c 7bbe
00000010: 1121 8cbd 38a6 6cbe 4c27 37be 7562 d1be
00000020: 53d2 993c 4521 47bd 91de 8a3e 989e 39be
00000030: cc8a f53d 895d 063e b2d8 0bbe 57af 083e
00000040: a932 683d a89e b7be 098a 10bb 6f3d 59be
00000050: b56a a1be cd43 f4bd c633 92be 24b6 cebe
00000060: 8a32 f7bc adff a5be b8c2 debd 4695 9dbe
00000070: fbcf 0cbe f04e 623e 5b8b febd 2e05 c8bb
00000080: ab65 fb3d f7c4 c0bd 21cc 4abd d420 c83d
00000090: 4b56 cebc e064 593e 2c95 b9bd 5008 563e
000000a0: bebd e2bc 2ada 0dbe d77b 8a3e d4a5 c63d
000000b0: cb51 e33d 0372 b9bd 1d43 8bbe f57d 67be
000000c0: 36ed d43c b793 e0bd 13b0 5f3e c5ca 49be
000000d0: 44a1 ed3d 7b22 4b3d 562d 263e 9dcc a8bc
000000e0: 55b1 d6bd 7759 ff3c 5db8 dc3d 60c1 dcbc
000000f0: 2a7f 21be 2b32 46be f75e 2e3c 641f 5b3e
00000100: cbc9 e13e 2599 dbbd c858 c8be 4969 3ebd
00000110: 7b86 89be 0da6 ab3d bbba 0f3e 137d cebe
00000120: 914a 13be 2865 a63d c50a 703d 798d 863d
00000130: b7a3 df3e 6995 033f cd24 993e 8da6 5dbd
00000140: b457 49bc 0ce8 8ebd 1872 53be 0d49 7d3e
00000150: 85d3 343e b2b4 d63e 7406 523e 4ddb fd3d
00000160: f3ba f1bd 42b4 9bbe bad9 e53d 147b 773e
00000170: 4773 443e ee11 18be 3dc2 9d3e bda7 6a3e
00000180: b40f 0fbe 30fd 373e 462b c2bc 137e bebd
00000190: 1c15 313d 14be fe3c c390 7a3c be96 00be
000001a0: 44b8 5fbe 09a3 ecbd 1289 76bd ca07 22be
000001b0: caae 3c3e 7eaa 52be a36f 6ebe e4c9 273e
000001c0: 35ca e33d 3bfd ee3d f530 193d d65a 8fbe
000001d0: 9c0d 46be d06e 823e e298 9d3c 5b30 66be
000001e0: 2f59 b93d 9f8d be3e 5a95 f8bd 9a7e 41bd
000001f0: 4a99 97be a98f 833c 21f8 61bd 95fa aabe
00000200: 610a 27bd b616 bb3e 8f7c 5d3e feca 16be
00000210: 4c99 89bd 0857 8b3e 3c98 243e 230f d63e
00000220: d7ca 8f3e 8bac c83d c5e7 0ebe 38bd 98be
00000230: fd18 913e b31b 53be e36c 0c3e 17b6 b03d
00000240: b209 de3e acad 053d c2dc 1cbe c6a3 823e
00000250: 868e 833e 3ac9 2f3e e747 a43d f079 b43e
00000260: db6d a83e 1392 48be 3681 2abc 0a71 e1bc
00000270: 6500 f13d 422d 8bbb 39d9 2c3e e6ce 163e
00000280: 5582 08bc fe0c c33e ff6a 463e bd09 053e
00000290: b379 96bd e3c3 83be 5160 76be d7ad 9a3e
000002a0: 32fe 463e 3e91 023e 856b 19be fdcd 0dbe
000002b0: 1fe6 2abe a952 56bd e6d5 503e 2a1e 26be
000002c0: d919 163d cc48 283e ae4f 843e d0fb f4bd
000002d0: 59d7 ba3d 9fa8 3bbe 4a6a 373e 8cee 50bb
000002e0: d91a a53e 94d5 8b3e abdd b7be 9297 193e
000002f0: b7be 4fbe 745d 95be ae32 6abe 7f33 63be
00000300: 0a32 99bb 8257 37be b85a cbbe 300b 983e
00000310: 3565 11be 0e66 0d3e 77e2 f6bd 52d5 81be
00000320: 91c7 6c3d 17d6 343e a7ff 8a3e 61ac d93c
00000330: 26f8 05be 499b 193e 791a 973d 0dea 3ebe
00000340: 2a14 ac3e 03d5 e03d 7f02 153e 175e 96be
00000350: 352f 9e3d 619d 2ebe 558b 28be 8615 843e
00000360: cac4 6fbe 2205 77be 4832 58be 2440 ecbd
00000370: 8379 973e 3681 b73e 88ae a63d 5490 c0bd
00000380: 867c 83be b570 ee3d 146c b4be cb45 cfbd
00000390: 5c0c 9e3c 3985 983d 35e9 6e3e 6dbe 99be
000003a0: ae1c d2bd 847b 85be b056 f73d b20e 3f3e
000003b0: 94af a0bd c2cd ddbd f558 863e 2986 223e
000003c0: 54cc 5abe afc7 bebd 3d85 b33e 1f2b ab3e
000003d0: 4034 07be be5a 933e 4044 36bd 7cce 9c3e
000003e0: f32c f43d a3d9 75bc 36c4 26bd 9ced 333e
000003f0: 5805 513c 6d19 1b3a 4304 803e 9abc d83d
-0.21017082 -0.015605561 -0.025096042 -0.24553269 -0.068422444 -0.23110282 -0.17886084 -0.4089543
0.018777048 -0.048615713 0.2712293 -0.18126905 0.11989364 0.13121618 -0.13656881 0.13348137
0.05668894 -0.35863233 -0.0022054932 -0.21214841 -0.31526724 -0.119269945 -0.28555125 -0.40373337
-0.030175466 -0.32421628 -0.108769834 -0.3077795 -0.13751213 0.22100425 -0.12428924 -0.006104133
0.12275251 -0.09412568 -0.04951108 0.097718865 -0.025187632 0.21229887 -0.090616554 0.20901608
-0.027678367 -0.13852754 0.27047607 0.09699598 0.11099585 -0.09054949 -0.2719964 -0.22606643
0.025992017 -0.10965674 0.2184451 -0.19706257 0.116030246 0.04959343 0.16228232 -0.02060538
-0.10483042 0.03117059 0.10777352 -0.026947677 -0.15771165 -0.19355075 0.010642759 0.21398693
0.44099268 -0.107225694 -0.39130235 -0.046487126 -0.26860413 0.08381281 0.14036076 -0.403298
-0.14383914 0.08124763 0.05860402 0.065699525 0.43679592 0.51399857 0.2991089 -0.054113913
-0.012288976 -0.06977853 -0.20648992 0.24734898 0.17658813 0.41934735 0.20510274 0.12395344
-0.11803236 -0.30410963 0.11223169 0.24168044 0.191846 -0.1485059 0.30812255 0.2291555
-0.13970834 0.17967677 -0.023702275 -0.093013905 0.043233022 0.031096496 0.015293303 -0.12557504
-0.21847636 -0.11554534 -0.060189314 -0.15823284 0.18426052 -0.2057285 -0.23284774 0.16385609
0.11122552 0.11669394 0.037400205 -0.2799899 -0.19341129 0.25475168 0.01923794 -0.22479384
0.090502135 0.37217423 -0.121378615 -0.047239877 -0.29609138 0.016059713 -0.055168275 -0.33394304
-0.040781382 0.36540765 0.21629547 -0.14725873 -0.06718692 0.27214837 0.16073698 0.41808423
0.28084442 0.09798535 -0.139556 -0.29831862 0.28339377 -0.20616035 0.13713412 0.08628481
0.43366772 0.03263633 -0.15318587 0.25515574 0.25694674 0.17166606 0.08021527 0.3524928
0.32896313 -0.19586973 -0.010406783 -0.027519722 0.117676534 -0.0042473385 0.16879739 0.14727363
-0.008331855 0.3809585 0.19376753 0.12991996 -0.07347431 -0.25735387 -0.2406018 0.30210754
0.19432905 0.12750718 -0.14982422 -0.1384811 -0.16689347 -0.052324925 0.20394096 -0.16222444
0.036645744 0.1643402 0.2584204 -0.11962092 0.091231056 -0.18326043 0.1791164 -0.0031880466
0.32247046 0.27311385 -0.35911307 0.14999226 -0.20287596 -0.29172862 -0.22870895 -0.22187613
-0.0046751546 -0.17904475 -0.3971765 0.29696035 -0.14198764 0.13808462 -0.120549135 -0.25358063
0.05780751 0.17659794 0.27148172 0.026571454 -0.13082942 0.15000643 0.07378096 -0.18643971
0.33609134 0.10978129 0.14551733 -0.2936866 0.07723848 -0.17052223 -0.16459401 0.2579767
-0.23414913 -0.24123052 -0.21112931 -0.11535671 0.29584894 0.35840768 0.08138758 -0.094025284
-0.2568094 0.11642591 -0.35238707 -0.10120734 0.019293003 0.07447285 0.23331149 -0.30028096
-0.102593765 -0.26070797 0.12077081 0.1865795 -0.07845989 -0.10830261 0.26239744 0.1587149
-0.21367007 -0.093154304 0.3506259 0.33431336 -0.13203526 0.28780168 -0.044498682 0.30626285
0.11922636 -0.015005502 -0.040714465 0.1757111 0.012757622 0.00059165695 0.2500325 0.10582848

network.0.bias f4 [128]
00000000: c376 bfbe 5c95 293e e08d 48bc 8c11 b03e
00000010: f7df 43be ac69 b3bd 6571 0fbe a278 92be
00000020: 4666 92bb 5b28 913e c1df 1b3e 2a39 313e
00000030: 0cc4 4bbe 41f2 803d b6aa 8dbe 728c e5bc
00000040: 5405 20be 1a70 38bd 0bb0 ba3c 7d98 383e
00000050: 09fa 84be bd11 803e 2054 20bd 9813 11be
00000060: 279e c7bd a033 7d3e 819e 4fbe d4a5 81be
00000070: 320c a9bb e537 89be b81a 1dbe 9c8c cfbd
00000080: 598e a83e 04a3 f1bd 0a5a 6f3e 4768 efbc
00000090: 51a2 69be 0c86 61be ceeb 08be d30c fe3d
000000a0: 98f7 a73e ff46 8b3d 801d 63be 8070 15be
000000b0: 268a 5f3e 672f 863e 88b2 1c3e 2a29 923c
000000c0: d78d 38be 4d09 e5bc 71ca 973e 5210 413d
000000d0: 4d9a 853c f42a c9bb 1c51 4a3e 2cb8 75be
000000e0: d9d3 673e 5db5 0a3e 5490 21be 76ea 0cbe
000000f0: 7591 a6bc 568e 603e 2c8c ff3d 8c36 bb3d
00000100: a2a7 72be 6f98 fb3c 56e7 8bbd d380 713e
00000110: f105 9b3d 0a16 993e 9cfe 9ebd 076b 273d
00000120: 15de 36bd 0632 183d 81cc 803d 8824 a13d
00000130: 8b60 3d3e 5000 1ebe b758 603e 3ed4 54be
00000140: 145d 80be f4a8 043e 6969 ae3e d9a1 6abe
00000150: b06e 053e 144a a33e 2355 03be 607a 283e
00000160: 1ff2 d0be eb39 1c3e b594 cf3b 9a06 ce3d
00000170: 2bd7 fb3d 70a6 413e 3f90 c73d 4726 8d3e
00000180: 2228 a53e ad06 2b3c ffe4 96bd 0f40 80bd
00000190: aa01 3abe 426c df3d 353b 5e3c 5624 f63c
000001a0: 1ac3 ddbd 4e09 8c3e ba6e cdbd b4e8 933c
000001b0: c15c 983e 5d8a 13be af4f a13e e964 903e
000001c0: 206f 4cbe 0aac 6fbe 5e35 de3c 857b 0c3e
000001d0: 307f e13d 6e0a 253e 0449 9dbe 0b97 873e
000001e0: 2985 dd3c 3e98 a53e 0de1 993e 6f63 a6be
000001f0: c98b 87bb 20b4 483e c06b 903d 9a9b 923e
-0.37395296 0.16560882 -0.012240857 0.34388387 -0.19128405 -0.0876039 -0.140081 -0.2860766
-0.0044677584 0.283511 0.15222074 0.17306963 -0.19899005 0.06296206 -0.27669305 -0.028021071
-0.15627033 -0.045028783 0.022789022 0.1802692 -0.25972012 0.25013533 -0.039142728 -0.1416763
-0.09746962 0.24726725 -0.20275308 -0.2532183 -0.0051589245 -0.26800457 -0.15342224 -0.10134241
0.32921103 -0.11798671 0.23374191 -0.029224528 -0.22815825 -0.22023791 -0.13371202 0.1240479
0.32806087 0.06800651 -0.22179222 -0.14593697 0.21830043 0.2620804 0.1530248 0.017841894
-0.18022858 -0.027958537 0.29646638 0.047134705 0.016308928 -0.0061391536 0.19757503 -0.23996037
0.22639407 0.13545747 -0.15777713 -0.13761315 -0.020333031 0.21929297 0.124779075 0.09141263
-0.2369676 0.030712334 -0.06831233 0.23584299 0.075694926 0.29899627 -0.07763407 0.040873554
-0.044645388 0.03715708 0.06289006 0.07868296 0.1849386 -0.15429807 0.21908842 -0.20784089
-0.25071013 0.12955076 0.34064797 -0.22913302 0.13030505 0.31892455 -0.12825446 0.16452932
-0.40809724 0.15256469 0.006334866 0.10059853 0.122968994 0.18911147 0.0974431 0.27568266
0.3225718 0.010438603 -0.07367896 -0.06262218 -0.18164697 0.109093204 0.013563921 0.030046623
-0.10828228 0.2735085 -0.10030885 0.018055297 0.29758266 -0.1440825 0.31506106 0.28201988
-0.19964266 -0.23405471 0.027125057 0.13718994 0.11010587 0.1611726 -0.3071977 0.26482424
0.027041035 0.32342714 0.30054513 -0.32497737 -0.0041365367 0.19599962 0.07051802 0.2863434

network.2.weight f4 [64, 128]
00000000: 0fc9 8e3d 8f38 a43c 1272 453d e143 b9bd
00000010: 1a1c 413d 148a 68b9 461f 0d3d b4ae 1b3e
00000020: 48d0 093d 82a6 033b 9ce0 00bd eec1 3a3e
00000030: 0055 16bd 6e4a 9fbd 3b98 8d3d 1f5a ff3d
00000040: 5a25 a43d caaa 893d 3852 a13c 6c5e 8f3e
00000050: 6ac4 a23d 3d75 e2bd 5695 2abd 2df8 1a3e
00000060: c295 e63d 5bd6 fa3b 1f03 3b3c bdd2 273e
00000070: 2a48 66bc 17b2 243e 35f6 16bc d89d 693d
00000080: b71e 85bc 449d 083e 9358 60bc ae85 a1bc
00000090: 3cd8 3e3d df78 19bc 813a 463c c10d 903c
000000a0: 75fa a33b 9564 153e 82be 333e 2038 ba3d
000000b0: f500 e73c 7c43 a5bd fb3c 6ebc f397 a8bd
000000c0: f1e5 a83d 1dc5 45bd 125b a73a 90c9 173e
000000d0: 4bfe ccbd e6c2 38bd 58a5 3ebe 6bc7 9e3d
000000e0: 6316 353e ac27 abbc 3e18 1fbe e669 c03c
000000f0: 3273 cdbd 693b 6c3d 88f0 b63d 0d98 cb3c
00000100: 7926 5d3d 7f3f 763d 4453 59be 8421 a83d
00000110: 4db4 9d3c ccd5 843d fe8c 80bc bd72 4a3e
00000120: b956 173e 0c23 523d 8313 563d 1b08 29bd
00000130: bb0d fbbc 5ca9 22be 2ded 46bd a8e3 0b3d
00000140: 2bc4 4abe cabf 3c3d f2cc 463d 68cc 25be
00000150: 8193 d13d 2430 56be 5f07 923c b946 593c
00000160: a203 833d 5b2a ab3c d166 713d eac1 81bd
00000170: 5d00 f73d 2956 563d 1117 54be d18b 9e3c
00000180: 968c cb3d a425 173d 43d2 f8bd a4ad 87bd
00000190: 5e25 703d 8b2c 273e a098 32be ac34 a63d
000001a0: 3160 a13d 1ffe b2bd 46ce e3bd dafb 013c
000001b0: af13 ca3c 900f 293d 98cc 123d afbf be3b
000001c0: 6473 6f3d 139d e73b 7383 c23d b6cd d33b
000001d0: 0d73 9dbb d0b0 333d 16e6 d23c be99 ce3d
000001e0: 6604 0e3d 1e9a e5bd ff17 7e3d db36 a83d
000001f0: 3ef1 25bd 3f0c 0abd bcde 133d 459f 44bd
00000200: 8e8d 8ebd 8e12 1c3d 5b12 31be f239 cdbd
00000210: 0bc0 a4bd 4769 ff3d e586 68bd e9e3 373e
00000220: b87c 1a3c d8ac 99bc c528 fe3d 0813 e53d
00000230: 0266 5b3b dbac c8bd b2b8 15bc c055 aa3c
00000240: 8880 8d3b 1c02 c83d 0d26 c93d b2d4 2d3b
00000250: 1098 8b3b 67de 023b 6b0e 893d a3ae e7ba
00000260: 86b7 d03d 5f38 293d f30a d43d f0db 9f3c
00000270: cf80 7abd b04e 97be 848e adbb 7fd5 c4bd
00000280: 9177 993d 81f2 01bd 103b a53d 1a16 233e
00000290: eb51 e3bd ce9e eabc e998 d0bd 8389 e3bd
000002a0: fb29 cebd 88a8 b4bd 6443 623d ec66 05ba
000002b0: 2a0a 973d 316a 9ebd 4856 babd ee77 893d
000002c0: e951 b73c 17f2 17be c3bb 86bc 9d6b 843d
000002d0: 2c44 7d3d c4fe 543d c6a9 f5bc 6cda a2bc
000002e0: 5eea cf3d 8989 b9bd d290 073e 5f49 a03d
000002f0: a464 f9bc 8d95 c43d 659b af3d bb66 343e
00000300: f2db 39bc 4c54 98bc eb7d f2bb 6e65 733c
00000310: 3a13 c5bd c017 933d 4289 d1bd 9f2e 97be
00000320: b635 d5bd e276 f9bc e354 8cbd 04ef a13d
00000330: f96f 303e 52c9 9a3d 4064 9ebd ace4 a7bb
00000340: c53c 0e3e 6a38 bf3d aed6 583d 9ed0 973c
00000350: dbaa 17be 77fd e0bd 69b7 093e 7939 07be
00000360: a63e d0bc 70aa b63d 8f94 a63d 1dc0 3f3d
00000370: c718 52bd aa32 83bd 95a1 bebd 2da7 c93d
00000380: 1676 89bb eb56 78bc 95ed 953d cca8 24bd
00000390: 9621 893d 1549 72bd e5d9 1f3e fa5c 793d
000003a0: 826a 443d c0c6 03bc 1695 b3bd 5b70 4abb
000003b0: 669d 3abc 4318 69bd 385d d8bb bdba 183e
000003c0: 358f a43c 8d8f b9bc 8bca 153d 4bc5 573d
000003d0: cb7e 2abd ba0d 36be b046 e0bd e062 f03b
000003e0: 3a9a 5ebe 2c2d f23b 2d66 593d 5157 033d
000003f0: 3cb5 d53d ecf0 bd3d 0efc 0b3e 33f7 95bb
0.06971943 0.0200465 0.04820449 -0.0904615 0.04714594 -0.00022176682 0.034453653 0.15203363
0.033645898 0.002008826 -0.031464204 0.18238041 -0.036702156 -0.07777868 0.06913801 0.12468361
0.08014937 0.067220286 0.019692525 0.28001726 0.07947619 -0.11057518 -0.041646324 0.15133734
0.11259033 0.0076549477 0.011414318 0.16388984 -0.014055291 0.16083561 -0.009213974 0.057035297
-0.016249998 0.13341242 -0.013692993 -0.019717064 0.046592936 -0.009367197 0.012098909 0.017584683
0.005004222 0.1458915 0.17553142 0.09092736 0.028198699 -0.08069512 -0.014540906 -0.08232107
0.08246983 -0.048283685 0.001276823 0.14822984 -0.1000944 -0.045107745 -0.18617761 0.0775288
0.17684321 -0.02089294 -0.15536591 0.023487996 -0.100317374 0.057673845 0.089325964 0.024852777
0.05399177 0.06011915 -0.2122317 0.082095176 0.019251013 0.06486091 -0.01569223 0.19770332
0.14779176 0.051302955 0.0522647 -0.041267496 -0.030646196 -0.15884918 -0.048566032 0.034152657
-0.19801395 0.04608134 0.048535295 -0.16191256 0.10233212 -0.20916802 0.01782578 0.0132614905
0.06397177 0.02089422 0.058935944 -0.06335814 0.12060616 0.052328262 -0.20711924 0.019353779
0.09938924 0.03690113 -0.12149479 -0.06624916 0.058629386 0.16325586 -0.17441034 0.08115515
0.07879675 -0.08739876 -0.11123328 0.007933581 0.024667589 0.041274607 0.035839647 0.0058211903
0.058459654 0.0070682853 0.09497728 0.0064637316 -0.004804975 0.043869793 0.02574448 0.10087918
0.034672163 -0.11211036 0.062034603 0.08213588 -0.04051327 -0.033703085 0.036101088 -0.048003454
-0.06960593 0.038103633 -0.17292158 -0.10020818 -0.08044442 0.12471252 -0.05676927 0.17958035
0.009429149 -0.018759176 0.1241012 0.111852705 0.003347755 -0.097985946 -0.009138273 0.020792842
0.0043183006 0.09766027 0.09821711 0.0026524481 0.0042600706 0.0019968988 0.06692203 -0.0017675947
0.10191254 0.041313525 0.10353651 0.019514054 -0.061157998 -0.2955222 -0.00529653 -0.09611034
0.074935086 -0.03172541 0.08067906 0.159264 -0.11099609 -0.028640177 -0.10185415 -0.11110213
-0.10066601 -0.08821207 0.05524005 -0.0005088884 0.073749855 -0.07735098 -0.09098488 0.06712328
0.022377925 -0.14838444 -0.016446954 0.06465838 0.061832592 0.052000776 -0.02998818 -0.019879542
0.10152124 -0.09059436 0.13238838 0.078264944 -0.030443497 0.09598837 0.08574561 0.17617314
-0.011343943 -0.018594883 -0.0074002645 0.014855726 -0.09622808 0.07182264 -0.10231258 -0.29527757
-0.10410635 -0.030452196 -0.06852128 0.07906917 0.17230214 0.0755793 -0.07733965 -0.0051236954
0.13890369 0.09336932 0.05293911 0.018532094 -0.1481127 -0.109858446 0.13448872 -0.13205518
-0.025420498 0.08919227 0.08133804 0.046814073 -0.05129316 -0.06406148 -0.09308163 0.098463394
-0.004194985 -0.015157442 0.07320706 -0.04020004 0.06695859 -0.059151728 0.15610464 0.060879685
0.047953136 -0.008042991 -0.0876867 -0.0030889723 -0.011390066 -0.056907903 -0.0066029094 0.14914985
0.020087818 -0.022651458 0.036570113 0.052678388 -0.041624825 -0.17778674 -0.109509826 0.0073360056
-0.2173852 0.007390639 0.053075958 0.032065693 0.10434958 0.09274468 0.1367037 -0.0045765876

network.2.bias f4 [64]
00000000: b144 fd3b fe9b 863d 0bb2 abbb 5f27 0f3d
00000010: efdf e43d 16e7 993d 3345 c23d 9034 75bd
00000020: 75f7 b4bd 902a a93d 2c51 703d 6d12 323e
00000030: 83a8 053d 06ff 12bb 51eb cabc 0b75 993b
00000040: 174c 5bbd 1bb8 973d 40da 913c dea4 ea3d
00000050: ee92 f73d eeb0 623d 9a8a 173d cbe5 223d
00000060: 080f 1d3e 2a11 ef3c 136f 233e b0b4 9b3d
00000070: 2014 843d 9e95 853b bfe2 313d e30e 873d
00000080: daf9 80bd 0f90 e43d 9d01 c93c d099 f53c
00000090: ac2d 14bd 3433 f03d 230f 813c 8fdb c2bd
000000a0: 011b 283a 6b0a 8f3d 9629 d43d 1629 82bd
000000b0: 6ec0 38bd 759d 033d 39bd f83d edcb 84bc
000000c0: 5a9f df3d 1e9c b53d 8c77 6ebc 192e 50bd
000000d0: 521e 12bd 645b 003d 3642 8a3d 5a47 003e
000000e0: 21e1 cebd 74a7 753d d283 c03d f200 013e
000000f0: 698b 6b3d 16fd c6bd 9d62 4f3d 1234 813c
0.007729136 0.06572722 -0.0052397302 0.034949657 0.111755244 0.07514779 0.09485855 -0.05986458
-0.08836261 0.08260071 0.05867116 0.17389841 0.03263141 -0.0022429838 -0.02477041 0.004683142
-0.05353936 0.07408162 0.017804265 0.11457227 0.120885715 0.055344515 0.036997415 0.03976993
0.15337765 0.02918299 0.1596034 0.07602823 0.06449151 0.0040766736 0.043429133 0.06594636
-0.062976554 0.111602895 0.024536902 0.02998057 -0.03617637 0.11728516 0.015754288 -0.09514534
0.00064127153 0.06984409 0.103594944 -0.06355493 -0.04510539 0.032132585 0.12145466 -0.01621052
0.10919066 0.088676676 -0.014554869 -0.050825212 -0.035673447 0.031337157 0.0675091 0.12527218
-0.10101534 0.05997415 0.09400143 0.12598017 0.057506 -0.09716241 0.050631154 0.0157719

network.4.weight f4 [98, 64]
00000000: d8fe 3dbd 30fd 6d3e c96b 333d 5ea6 79bd
00000010: f154 1e3e 1c67 3fbe 0e05 2f3d ae5c 8cbd
00000020: ed38 013c 0a21 db3d fc50 f93c 059c ba3d
00000030: dea4 91be e249 0dbe 628a d33c 1a27 b23d
00000040: 4858 43bd a17a 9c3d d868 063e d55b d33c
00000050: 8fc4 27bd d709 9fbd bddc c43d ae30 1cbe
00000060: 9336 14bd 7eb9 423d 6a7c 50be 0cf6 163d
00000070: a8fb 993d affc bdbd 3f4b 043d 210a 6bbc
00000080: 1393 533d 925b c8bd 0e2b 143e c458 46bd
00000090: 15ed f5bd 5857 be3d 0ec5 e7bc 5bdb b33d
000000a0: fc31 813e 669f 4abd 627e bebd b897 5f3d
000000b0: 1d4f c7bd c9e2 7dbb d614 58be 9df4 be3d
000000c0: f27d 90be 6e92 583d 8ad0 ea3d 57d5 e1bd
000000d0: ce8f 2bbe 2edc 15bc 0498 863d 18e2 a33c
000000e0: e7e1 ce3d 2458 373d cb39 35be 0203 a63d
000000f0: 287c 01be 7071 b13d 2a85 503e c431 a6bd
00000100: a0c4 17bd ea6d 86bc bdd4 08be d5cb 873c
00000110: 0166 983e 5d6a 333e cbfc 31be 33e0 c3bd
00000120: ef04 173d ace6 76bc 6f43 a13d ca07 aabd
00000130: f9b6 793c 7a10 803d b8ac 4f3e 456c 01be
00000140: 0046 fdba 1406 46be 1ae6 48be 8596 76bd
00000150: fb85 2f3e 49a9 403d 09da 03bd 7941 92bd
00000160: efcb 883d 05de 853e ad7d 12bd a912 0cbe
00000170: 9683 263e 999c c23c 103d 0dbb 3137 d33d
00000180: 61cb a0bd 2fb4 cc3d 609a 083e a62c 99bd
00000190: 3607 6c3d 753f c4bc fbc1 b13c c457 f5bd
000001a0: 6d30 f63a c382 8a3d c8df 75bc c55b af3d
000001b0: 9c1c 013e fab0 93bd 2843 963d d2c4 2cbe
000001c0: 3456 693c 4957 52bb 8235 bebd 1448 113b
000001d0: 3a03 f93c 36ce 183e eec7 36bd e558 d3bd
000001e0: c975 c23d 1756 f23d 81ea 60be 4f6e 97bd
000001f0: 1771 02be dd6e 5a3c 4fdd 863d 8e19 283d
00000200: 623e 63be 899d 8f3d 753d bdbd 3789 91bd
00000210: 6e50 84bd c2b7 133d a09c ad3d a7bd ae3d
00000220: 3728 29bc 079f 473e e6cc babd fafd 61be
00000230: cc05 71be 54a0 91be 1c38 fabd cfb7 90bd
00000240: 8041 333b 0b8f 0cbc 69d9 ffbd fb17 e93d
00000250: b3a0 643d f2f5 343e 7cd8 eabd 4201 37bc
00000260: e63b 21be 3d86 f23b 2fcc ccbc 4753 073e
00000270: bb35 f63d 0648 2d3d 9826 c73c d919 d13d
00000280: f395 ed3b 9c67 283e e687 263e 9540 ac3d
00000290: 979b adbd 6e56 02bb 82d2 65bd 1edb 0f3e
000002a0: 474a 0ebb 4bb4 b83d a621 8abd 9292 81be
000002b0: 9e80 e5bc 436a 1f3e e194 09be 1493 c03d
000002c0: 6a86 503e 8e48 b03d 7747 3b3e 4654 7f3c
000002d0: 88ff d6bd 5932 debd a715 ae3c 6f1c 1f3d
000002e0: abc1 f3bd a35c c93d d0cc ad3d 0031 1ebd
000002f0: 21ac 1d3e 379f 46bd 532e d83d 8a8b 00bd
00000300: fed9 36be d2b9 10be fda8 943d 4f3d a5bd
00000310: e1fc 333e 1a8b 8b3d dea3 7dbd 22dc 47bc
00000320: 5ba4 513d 9869 01bd f375 593d 2b42 713d
00000330: 2982 63bc 7584 f2bc 26a8 d7be 60ff 90bc
00000340: 2c4b 863d ee56 32bd 25d7 703b b848 78bd
00000350: d5ee 093b d748 aabd 6880 94bd fd3b 1a3e
00000360: 173e a7bd 1ecc b4bd f8cc bebc 29eb 1abe
00000370: fa59 5ebd 4981 d6bd 88e7 19bd 6909 b1bd
00000380: 617b 88bd c4ff c53d b580 b13d fdd4 b73d
00000390: 64e0 9c3d 6a58 383e 2f92 f23b 08f1 48bd
000003a0: a81e 73bd cec7 1d3d 05c9 a73d 741c 23be
000003b0: 4ca0 7dbd d18a c0bd c399 acbd d649 123e
000003c0: 90ec 583d 6fc5 fc3c d119 1abe e5c4 48bd
000003d0: 2d38 43be 648b 1ebe 7147 fb3c 9b5f 563d
000003e0: f1c6 e43c 510b ec3d cc7c 89bd 3e3f e83d
000003f0: 7c95 2dbe 6363 7fbc c9bf 7c3d 4d28 febd
-0.046385616 0.23241115 0.043803964 -0.060949676 0.1546209 -0.18691677 0.04272943 -0.06853615
0.007887107 0.10699661 0.030434124 0.091117896 -0.28446096 -0.13797715 0.025822822 0.08698864
-0.047691613 0.07640577 0.13125932 0.025800625 -0.040958937 -0.07765549 0.09612415 -0.15252945
-0.03618486 0.04754018 -0.2035996 0.036855742 0.07518703 -0.09276711 0.032298323 -0.014345677
0.051653933 -0.09783091 0.14469549 -0.048424497 -0.120081104 0.09294003 -0.028292205 0.08782073
0.25233448 -0.04946842 -0.09301449 0.05458805 -0.097318865 -0.003873991 -0.21101698 0.09324
-0.2822109 0.05287402 0.11465557 -0.110270195 -0.16754076 -0.009146733 0.065719634 0.02000527
0.10101681 0.04476179 -0.17697828 0.081060424 -0.12645018 0.086642146 0.20363298 -0.08114961
-0.03705275 -0.016409833 -0.13362403 0.016576687 0.29765323 0.17521043 -0.17381589 -0.09564247
0.03686994 -0.015069645 0.0787419 -0.08302267 0.015241378 0.06253143 0.2028073 -0.12638958
-0.001932323 -0.19338256 -0.19619027 -0.06020214 0.17140953 0.047036443 -0.032190356 -0.07141394
0.06679522 0.2614595 -0.035764385 -0.13678993 0.16261134 0.023756312 -0.0021551289 0.10313261
-0.078512914 0.09995305 0.1334014 -0.07479219 0.057624064 -0.02395604 0.021698942 -0.119796306
0.0018782743 0.06763222 -0.015006967 0.085624255 0.1260857 -0.0721149 0.07337028 -0.16871956
0.014241744 -0.0032095483 -0.092875496 0.0022168206 0.030397046 0.14922413 -0.04462426 -0.1031969
0.09495122 0.118328266 -0.21964456 -0.073940866 -0.12738453 0.013332096 0.0658518 0.041039996
-0.22191766 0.07012469 -0.092402376 -0.0710625 -0.06460653 0.036063917 0.084771395 0.08532267
-0.010324529 0.19494258 -0.091211125 -0.2206954 -0.23537368 -0.28442633 -0.12217733 -0.07066309
0.0027352273 -0.008579026 -0.124926396 0.11381527 0.055817317 0.17671946 -0.11467072 -0.0111697335
-0.15745506 0.0074012564 -0.024999706 0.13215362 0.12021967 0.042305015 0.024310395 0.10210008
0.0072505414 0.16445774 0.16262779 0.084107555 -0.08476942 -0.0019887942 -0.05610896 0.1404843
-0.0021711753 0.09018763 -0.06744699 -0.25307137 -0.028015431 0.1556788 -0.13435699 0.09403053
0.20363775 0.08607589 0.1828898 0.015584057 -0.104979575 -0.10849447 0.021250559 0.038845476
-0.119021736 0.09832122 0.084863305 -0.03862095 0.15397693 -0.048491683 0.10555711 -0.031383075
-0.17856595 -0.14133385 0.072587945 -0.08068334 0.17576934 0.06813641 -0.061923854 -0.01219848
0.051182132 -0.031594843 0.053091 0.058900993 -0.013886013 -0.029604176 -0.42120475 -0.017699897
0.06557307 -0.043539934 0.003674933 -0.060616225 0.0021046896 -0.08314674 -0.07251054 0.15061946
-0.081661396 -0.08827995 -0.023291096 -0.15128769 -0.054285027 -0.10473878 -0.03757432 -0.08644373
-0.06664158 0.09667924 0.08667127 0.08976171 0.076599866 0.18002477 0.0074026803 -0.04905799
-0.059355408 0.038520627 0.08192638 -0.15928823 -0.06192045 -0.09401477 -0.08427765 0.14285979
0.05295998 0.030855862 -0.1504891 -0.0490159 -0.19064398 -0.15482861 0.030673714 0.05233727
0.027926894 0.11525596 -0.06713256 0.113401875 -0.16951555 -0.0155876605 0.061706338 -0.124100305

network.4.bias f4 [98]
00000000: 5e6e a03d 3a82 46bc c2fa c4bc 5ce0 763b
00000010: a75c 503c 2cbb 88bd 2516 36bd 9fc6 0abe
00000020: d822 b2bd d955 aebd 1659 21bd 2b6f 9ebc
00000030: cb47 a73b 2ddf b23d 13d0 a6bd 2982 d6bb
00000040: 0a2d 7bbc cb6d c3bb 987c 5bbd cab6 68bc
00000050: 7b7c 993d 54d6 74bd a896 0b3c 3fed 0bbc
00000060: fbcd 123c 53d6 27bd e35c 88bb aded b53b
00000070: c064 633d 88d8 ba3c 7e74 22bb 9332 a5bd
00000080: 8272 da3c 3186 e8bd 3370 233d 76cd aebd
00000090: f840 aa3d 4b5b a3bd d280 3abd 59a0 d2bd
000000a0: 45cf a1bc 116d e9bc bccf b8bc b388 3bbd
000000b0: 759b 7d3c f39c edbd b968 d9bd c3a1 00bd
000000c0: b497 e4bc c525 f13c 1014 4239 f501 98bd
000000d0: 87d9 8dbd d27e babc 2115 983b 2878 1c3d
000000e0: 90e2 4abc d0ec f8bc 8000 61bd ca94 eabc
000000f0: 8f6c 33bd 8937 2b3e 441f 513d 2326 9a3c
00000100: 58fc bf3c 359d ecbd e1b8 7cbd 7c17 55bc
00000110: 1d3c ec3c 9aa6 903d a5a0 003c dc08 b03d
00000120: c347 36bd 692d e7bd 892f 013d 7956 0b3e
00000130: 21b8 a53c 3d7f 923d d19d 53bd 92ce 553d
00000140: 499a 28be 9e24 efbd 4d06 a43d 8a3a 1dbd
00000150: d4a6 033e eb8d 4f3d 9bce 15bc 9f2f e6bd
00000160: 06a7 34bc 132f 563e 3525 93b9 33c9 9dbd
00000170: 6474 163c 9f8e 0dbc 629e 2bbe 3626 0ebd
00000180: 61b7 e63d bdc5 ca3b
0.07833551 -0.012116009 -0.024045352 0.003767035 0.012717403 -0.06676325 -0.044454712 -0.1355233
-0.08698052 -0.08512468 -0.0393916 -0.019340118 0.005104994 0.08733974 -0.08145156 -0.006546278
-0.015330562 -0.005964016 -0.05358562 -0.014203737 0.07494446 -0.05977471 0.008519806 -0.008540451
0.008960242 -0.04097588 -0.0041614636 0.005552015 0.055516005 0.022808328 -0.0024788673 -0.08066287
0.02666593 -0.1135372 0.039901923 -0.08535282 0.08313173 -0.07976397 -0.04553301 -0.1028449
-0.019752154 -0.02849439 -0.022559993 -0.045784663 0.015478958 -0.11602201 -0.106156774 -0.031404268
-0.027904369 0.029436955 0.00018508756 -0.07422248 -0.06926256 -0.02276555 0.0046411906 0.038200527
-0.012383118 -0.030386358 -0.054932117 -0.028635401 -0.0438047 0.16720404 0.051055208 0.018817013
0.023435757 -0.11553422 -0.06169975 -0.013006087 0.028837258 0.07063027 0.007850801 0.0859544
-0.04450203 -0.11287958 0.031539474 0.13607205 0.020229401 0.07153175 -0.051664177 0.052198954
-0.16465105 -0.11676906 0.08009014 -0.038385905 0.12856609 0.050672453 -0.009143497 -0.11239552
-0.01102615 0.20916395 -0.00028065746 -0.07704391 0.009183023 -0.008639961 -0.16759637 -0.03470441
0.112654455 0.006188123
