results/models/trajectories_sc2_rs_n6000_model.pth (torch, 200520 bytes, 10 tensors)

network.0.weight f4 [128, 10]
00000000: 2be7 c5bd d62b c5be 99ed 19bf 3401 a8be
00000010: 76b1 4ebd 1c43 52bc 006b bb3d ca3e 5bbf
00000020: 0941 d1bd bdc7 eb3e 4203 4cbe 1a44 3c3c
00000030: a7e0 013e dedb cc3e cf90 803e 6ddc 0c3f
00000040: 7439 303f f285 70be 8de3 21bf d869 1f3f
00000050: d676 863d 030a 43be 9b5c 9fbd 6991 48be
00000060: f8eb 913d d252 df3d 50df 03be f3b9 34be
00000070: 91c1 093e ea3a 093e a561 d63d e273 7cbd
00000080: ef16 1d3e 52b1 86be 0ec2 263d cfd0 46bf
00000090: 9770 6b3e 8159 47bc 3c2b 71bf 15ec ca3e
000000a0: ddde 01be a317 09bf 4c38 a8be 7cfe c8be
000000b0: aeed 9a3e 5e4c 4ebf 55c2 953f 6e71 a93e
000000c0: adc7 a9be d369 62bd 5aa0 18be 4fcd b23d
000000d0: 409d 683e e57f 843e 2cbc d83c 1346 8cbc
000000e0: 18eb d8bd 077b 0cbc a88b 57be 3ec8 773e
000000f0: a91d 883e efbd cd3d cc67 9e3d 3a39 9c3e
00000100: f161 d1be 0f0c c13e 3427 9d3e 999e 36bd
00000110: 68a8 b7be b38c e9be 0c28 0bbe d458 16bf
00000120: 182a e9be 1593 9cbc 42ce 0f3f afa6 3d3e
00000130: 7ec4 6e3e 0bfe c9be 6eb8 d33e 0afa 643e
00000140: 9236 8e3d 4d70 4d3e c6aa 03be 1dc0 68bd
00000150: f5dd 8ebe 3825 673e 534e 14be 00ae 3abe
00000160: 847e 48be 1ba1 20be 6b9c 80be df71 adbe
00000170: 96f1 1fbe 6617 293e 03d7 02bf 436b 2fbf
00000180: e860 723e 72a2 953e 9d2a 9abf 5a4f 2abe
00000190: c32a 29bd 65da 87be 320b a53c 7002 69be
000001a0: 2d3b 2abf 7c6f d73c 6c8d af3e 150f 843e
000001b0: 9930 a23d ea5f bfbd 3449 f43a 73d6 d3be
000001c0: 3287 1abe 7d62 8e3d 9aa7 babd 7cb4 013e
000001d0: d971 2cbe b904 663e 2a15 903e 2812 d5bd
000001e0: 4398 413e e487 403e e91f 2c3e 860a 01be
000001f0: 9e10 18bd 58d9 bfbc 07ce 863e 2fa8 ef3d
00000200: 988d d03d de85 643d ab09 723b 4b37 2f3e
00000210: 5616 d03d cbfc aabd 2906 5c3f 859b 45be
00000220: 28d3 af3d b484 fe3d 899d 1ebe 501f 0abf
00000230: 7130 a1be d2ef aebe 5da6 32be dca5 61bf
00000240: 70c5 ef3d 79f7 8cbd fd52 883e c9c8 a33e
00000250: 8062 f2be 1b5d 0b3f e185 8d3e e733 8a3e
00000260: 5ce7 be3d 1570 d1bb fb2d aabe 97bc 4d3e
00000270: efb3 273f 8136 efbe d8ab 39be 7de1 d23e
00000280: 5d8d c93d d022 c13d 3bfe 64be 8228 99be
00000290: 9c5b e1be f8c2 033d c298 94bd 1d85 8c3d
000002a0: b31a ac3d a675 c3bd d00f 263e 6dc9 82be
000002b0: 83ab 843d c7ca 1f3e d822 0e3e 313b 4dbe
000002c0: cf04 49be 679a 71be f62a 253e 5ea4 40be
000002d0: 9617 66bd adb7 0abe 1044 fe3c 4f26 fe3e
000002e0: e63c febe d93a 9ebe 7487 fd3e da1e 18bf
000002f0: 0e47 d5be db59 32bf 4b23 dabd 7721 25bf
00000300: e3db e4be 4218 28be 799f 4abf 031b 923d
00000310: 9168 c4bd 5bd1 92be ef42 b2be 7082 75be
00000320: a1c2 24be 7cdf 90bd c762 0dbf 8eff fcbd
00000330: 5470 4cbe 0c70 31bd 283c cdbe 64d5 92be
00000340: 137f 8e3e d070 723c 2b78 7d3e c803 0abe
00000350: ea65 80be 7ceb cdbe 6d31 4f3f 5025 8e3c
00000360: 1154 18bd 9b70 14bf 5a7d 5ebe e31f 263e
00000370: c223 4a3e 7f53 d9be 4711 5fbf 01ba 423f
00000380: 3bb1 47bf e19b 123e 433d 8dbe 9a9c 5abd
00000390: 718d d3be 4c14 e03e 4765 773e 8e51 f5bc
000003a0: 76d0 ae3c 542c 2abe 8c01 86bb 3cde cbbd
000003b0: e5a7 18be f221 463c 3e44 5fbe 24f6 fe3e
000003c0: 1d7a 89bd 058e f0bd bd5e dcbe 5cf7 39be
000003d0: 7c18 363e 75fa a3bd 2d6b 15bd 6729 32be
000003e0: 9316 263e 9893 96be 5073 8f3e b22c 573e
000003f0: 1fb1 b5bd 713b 10bf 24e4 79bd f9fd 0abf
-0.096632324 -0.38510007 -0.6012817 -0.32813418 -0.05046221 -0.012833383 0.09151268 -0.85642684
-0.102174826 0.46050826 -0.19923118 0.011490846 0.12683354 0.40011495 0.2511048 0.55023843
0.68837667 -0.23488596 -0.6323784 0.6227088 0.06565635 -0.19046788 -0.07781335 -0.1958672
0.071250856 0.109044686 -0.12878156 -0.17649059 0.13452746 0.1340138 0.10467843 -0.061633952
0.1534078 -0.2630716 0.04071241 -0.77662367 0.22992168 -0.0121673355 -0.94206595 0.3963324
-0.12682672 -0.5355169 -0.3285545 -0.39256656 0.3025946 -0.8058528 1.169993 0.33094352
-0.33160153 -0.055276703 -0.1490492 0.08730566 0.22716236 0.25878826 0.026456915 -0.017123258
-0.105917156 -0.008574254 -0.21049368 0.2419748 0.2658513 0.100459926 0.077346414 0.3051241
-0.40895036 0.37704512 0.30693972 -0.044584844 -0.3587067 -0.45615157 -0.13589495 -0.5872929
-0.45539927 -0.019113103 0.561741 0.18520616 0.23317143 -0.39451632 0.41351646 0.22361007
0.06944002 0.2006237 -0.12858114 -0.05682384 -0.27903715 0.22572792 -0.14483003 -0.18230438
-0.19579512 -0.15686457 -0.25119337 -0.3387594 -0.15619501 0.16512832 -0.5110933 -0.68523043
0.2366978 0.29225498 -1.2044255 -0.16631833 -0.041300546 -0.2653381 0.02014694 -0.22754836
-0.66496545 0.026298277 0.34287584 0.25792757 0.079194255 -0.09344466 0.0018637539 -0.4137455
-0.15090635 0.06952379 -0.09113999 0.12666506 -0.16840304 0.22462739 0.28141147 -0.10403854
0.1890574 0.18801838 0.16809048 -0.1260167 -0.037125222 -0.023419067 0.2632906 0.11702
0.10183257 0.05579173 0.0036932032 0.17110936 0.1016051 -0.08348998 0.859469 -0.19297607
0.08585197 0.12427655 -0.15489782 -0.5395403 -0.3148227 -0.34167343 -0.17446275 -0.88143706
0.1170758 -0.06883139 0.26625815 0.31989124 -0.47340775 0.5443894 0.27641204 0.26992723
0.09321472 -0.006391535 -0.33238205 0.20091473 0.6550893 -0.4672127 -0.1813196 0.4118766
0.09841416 0.09430468 -0.22362606 -0.29913718 -0.44015205 0.03216836 -0.07255699 0.06861327
0.0840353 -0.09543924 0.1621697 -0.255443 0.06478026 0.15604697 0.1388048 -0.20042111
-0.1963074 -0.23594056 0.1612967 -0.18812701 -0.056174837 -0.13546629 0.031038314 0.49638602
-0.49655837 -0.30904272 0.49517405 -0.59422076 -0.41655773 -0.6966836 -0.10651263 -0.6450419
-0.4469901 -0.16415504 -0.79149586 0.07134058 -0.09590257 -0.2867535 -0.3481669 -0.23975539
-0.1608987 -0.07073876 -0.5522885 -0.12353431 -0.19964725 -0.043319747 -0.40084958 -0.2867843
0.27831325 0.014797404 0.24752872 -0.13478005 -0.25077754 -0.40218723 0.8093479 0.017351776
-0.037189547 -0.5798432 -0.21727505 0.16223101 0.19740203 -0.42446515 -0.8713574 0.7606507
-0.7800481 0.14317276 -0.275858 -0.053372003 -0.4131885 0.43765485 0.24159728 -0.029946115
0.021339636 -0.16618472 -0.00408954 -0.09954497 -0.14907797 0.012093054 -0.21803376 0.49797165
-0.067127444 -0.11745838 -0.4304103 -0.18160766 0.17782778 -0.08006755 -0.036479164 -0.17398606
0.16219549 -0.2940948 0.28017664 0.21013144 -0.08871674 -0.563407 -0.061008587 -0.5429378

network.0.bias f4 [128]
00000000: 32b1 2bbf 6261 76be 3943 4bbe f033 dbbd
00000010: 03ba 02be 3aec 9f3e fac3 003e af12 22bf
00000020: f223 943e ff58 60be 08c0 de3d b898 0fbf
00000030: 194b 363e 8f7d c6be 983c a7be f406 803d
00000040: 0361 eabd 76a3 77be 3108 5dbd 1737 3ebe
00000050: 6e8c 28bf e1cb cdbe 1999 6ebf 51a9 ccbd
00000060: 2761 a43c d33f d33d a93a 01bf fb90 e53d
00000070: 3dc7 72bf ae39 b4be 07e6 513d 940a b03e
00000080: 2ada 743e 8b2f ac3e 6f61 94bd 7782 adbe
00000090: 3902 00be 8511 02bd 8361 babe 5aa7 2fbf
000000a0: ff02 093d c94f d8bd 4226 13bf c3ed af3b
000000b0: 0db3 893d 7f0d 0bbf 69a6 22bf cbe5 85be
000000c0: 20cf 833d b487 fbbe 84f4 1cbf cc09 19bf
000000d0: 4ab6 803e fcc9 73bd 154e b4be f8b4 81be
000000e0: d398 e0bd 4dc7 19be befb a7be 98ca d8bd
000000f0: cc68 10bf 0217 7dbe a3e5 c63e b3ac 8c3d
00000100: 60d4 3abe 422c b03e 64f9 97bd 66f6 643c
00000110: bfdf 69be db73 8dbe 7141 88bd 1338 22bf
00000120: 8853 433e 7289 613e 0ebc ad3d d1ba 2abe
00000130: 638a 9c3d b0d2 c4be 4eb1 acbc d54e 32bf
00000140: c78b d93e 922b 79be 985a 00bf 3988 14bd
00000150: 2318 26bf 954b 58be eb85 36bf fdcb 96be
00000160: ad86 02be af21 b1be 5cac aabb 4122 67bf
00000170: 606e 35bf 0ca3 0f3e aa72 db3e a045 3dbb
00000180: 6220 10bf 131a 323d a454 2abf ee23 523e
00000190: fd07 1dbf cd07 48bd b096 4cbf 90e0 02bf
000001a0: 8776 c23e 65f5 85be cc48 97be 0a76 133e
000001b0: eeea bfbd a594 003b 459c 123e 84e6 963e
000001c0: 69af 20be 72fb aebc ed86 22bd 05ea 03bf
000001d0: fc6b edbe 3d9c cdbe 0e19 c43e ed29 b83c
000001e0: 3192 67be 3a17 66bd d392 d7be 7611 0bbe
000001f0: b484 133f cb0e 8bbe 3e1c c93d dbc8 0bbf
-0.67067254 -0.24060586 -0.19849862 -0.10703266 -0.1276627 0.31234914 0.12574759 -0.6330976
0.28933674 -0.2190895 0.10876471 -0.56092405 0.17802085 -0.3876767 -0.32663417 0.06251326
-0.11444285 -0.24183449 -0.05396289 -0.18575703 -0.6583928 -0.4019461 -0.9320236 -0.09993232
0.020065857 0.10314908 -0.50480133 0.112092935 -0.94835263 -0.35200256 0.05124476 0.3438307
0.23911348 0.33630022 -0.072451465 -0.338886 -0.12500848 -0.03175499 -0.3640252 -0.68614733
0.033450123 -0.10562093 -0.5748025 0.0053689196 0.06723604 -0.5431747 -0.6353517 -0.2615188
0.0643599 -0.4912697 -0.613106 -0.59780574 0.25139076 -0.0595188 -0.35215822 -0.2533338
-0.10966649 -0.15017433 -0.32809252 -0.10585517 -0.5640991 -0.24715808 0.38847074 0.06868877
-0.18245077 0.34408766 -0.07420614 0.013974762 -0.22839259 -0.27627453 -0.06653107 -0.6336681
0.19074833 0.22025087 0.08483134 -0.16672827 0.07643583 -0.38441992 -0.02108064 -0.6965154
0.42489454 -0.24333027 -0.50138235 -0.036262725 -0.6488058 -0.21122582 -0.7129809 -0.29452506
-0.12746687 -0.3459601 -0.005208535 -0.9028664 -0.70871544 0.14027041 0.4286092 -0.002888061
-0.5629941 0.043481898 -0.665354 0.20521519 -0.61340314 -0.048835564 -0.7991743 -0.51123905
0.37981054 -0.26163784 -0.29547727 0.14400497 -0.09370981 0.001961985 0.14317425 0.29472744
-0.15691914 -0.021360133 -0.039679457 -0.5152896 -0.46371448 -0.40158263 0.38300365 0.02248093
-0.22614361 -0.056174494 -0.42104205 -0.1358088 0.57624364 -0.27159724 0.0981984 -0.54603356

network.2.weight f4 [128, 128]
00000000: 181a 5c3e 5286 933e b435 01be f47a f2be
00000010: 0bca c33e f6ac 0fbf 9dbf 77bf 5584 b03d
00000020: 3d3d 32bf c141 78bf a9d6 a8be e7c5 7abe
00000030: 2767 0b3e ba58 af3e d749 6fbd e72c e13e
00000040: b76d 10be 6ccd 053e 0569 21c0 978f a9be
00000050: b912 443e 0af8 a5bd 03b2 083f c31f 3a3e
00000060: 46d8 8d3e 041d 0f3e 993e af3e 1301 3a3e
00000070: 75d2 b7bd 9c4e 8cbe 4ba0 433e c917 15bf
00000080: 5f5f 1abd 4a1f 37be e9b9 083e 3f6d 18be
00000090: 2788 6ebe dbd9 6abf bc89 743d 6bb8 5c3f
000000a0: 16d2 543d 43fc 81bd 94fe d63e 4a98 03bf
000000b0: 7f0d 8ebe 7805 e63c fcb8 6dbd 0c7a 8b3e
000000c0: 5f62 51be 84ad 3c3e 9ec2 8e3e 799f cd3d
000000d0: fc0d 35be 014a b5bd dd0c a53e 4483 c0bd
000000e0: bfe8 d53d f045 38bf 45e2 4a3e c7a3 68be
000000f0: 9e64 86bf a58d b43e cf46 413f 1de2 eabe
00000100: 5fe0 ba3e 54d6 82bd 15e9 8abd 2912 443e
00000110: cb52 e6bd b501 c23c 13db ccbb 7be4 2f3f
00000120: f73e 4abf 5bfc 15be 0e16 32bd 8bd7 573f
00000130: 4c0d c23c 3fac 623e 5738 dabe 59de cdbc
00000140: 9ca2 57be a659 403b 27f5 9b3e e602 7bbe
00000150: 07fa 473e 7445 f33c 5271 16bd a846 763e
00000160: 2a14 ba3e 1f76 6fbd 56fa 14be 22fd 22c0
00000170: 0ae4 853e aedc 923e 7bb1 76be 15ba ea3d
00000180: 9f08 383e 4d91 693e d3bd 2bbe d099 a1bd
00000190: fc88 013f 8e6e 49be 9832 493d aead 573e
000001a0: 30e7 85bc 0ff8 de3d 353c a73c be64 afbe
000001b0: 1a65 ab3d 794c dabf 2808 633c 96e8 8a3e
000001c0: efb7 c3be 758b df3d a10d 0c3d 4643 f33e
000001d0: bd04 2fbe 272c 29be 207c 12bf 3e6a 723c
000001e0: 2524 683e 7995 aabe 6db7 243e 0625 a6bf
000001f0: b735 84bf 723a 81bc 3c08 83bf 2395 f73d
00000200: 8152 c5be 4217 05bf 8cfd 30bd fb98 debd
00000210: 036b 043d 7d47 e1be 7160 923e a37d 4bbe
00000220: f8fb b6be f1e3 1cbf 465e b3bd ae59 5f3d
00000230: 06ca 693d 40ca cd3e 4cea 863e a469 0d3d
00000240: 5239 dcbd 3a6e f33d d481 703d f452 8e3e
00000250: 8255 e3be 76f4 eb3c 0243 d33e a995 37be
00000260: 799c 87bc e32b 06be 4b2a fabe eb33 503e
00000270: 14c5 bf3e 56f2 18be 7cf6 003f c53b 80bd
00000280: 7eac aa3d f8ae 97bd da74 223e fd5d a93d
00000290: 4cec 1a3d d8bc fb3e 3764 cb3e 9518 713e
000002a0: 5c9a 893d 5f03 3a3f 110d bebe d0dc dfbd
000002b0: 7edd 30be 1e84 ebbb c7a0 7bbe 3e98 113d
000002c0: 7796 ff3c 05ad b7be dc83 263e 1f33 6c3e
000002d0: 9172 72bd 6568 933d 6928 9ebe f04f f9bc
000002e0: 5269 023f 4455 bebe cf6d 07bd 35d3 2b3e
000002f0: 626b 9d3e d3b7 8cbe e843 b4be dbc0 c43d
00000300: 7ebf 28c0 1117 9dbd a770 b33e 5311 d4be
00000310: 8d70 dc3d 12da fd3d d73f d7be 585a c1be
00000320: a77d 8d3d 3e80 1e3e 6563 263d f721 a1be
00000330: db9e 413e 5579 81be bfc3 0fbe 2093 a03e
00000340: 201f 90bd ddb7 853c 6eb8 a33d 00ac 8cbe
00000350: 8e07 ab3e 3f9f 55bd 51e3 a43e 60d3 56bb
00000360: 042a 4bbe 7c57 d6be 3c91 f83c a0aa 23be
00000370: 26cf 733b bc37 dabf 2f85 353e 3616 983c
00000380: c94f 80be 6c42 a33d 2bf6 45bd a155 61be
00000390: 425d 0fbf 7e19 11bf c810 d5be 0349 c83e
000003a0: 5d6b 7dbe b5c1 973d fa38 65be eaca 56be
000003b0: dfd6 d33d 923d a6bc d2ba ea3d 655b eb3e
000003c0: 7bdf 393e df3b 033f 568b 3a3e 9107 023e
000003d0: 55de 94bd ce9d dfbf f5d1 f53e 9e7c 6a3d
000003e0: abdb e3be c94d 8f3e f2e6 5f3e 30f4 123f
000003f0: f67e c9bd 52ac a3bd 705e a73e 8859 153e
0.21494329 0.28813416 -0.12618142 -0.4735943 0.38240084 -0.5612329 -0.96776754 0.0861899
-0.6962469 -0.9697533 -0.32976273 -0.24489556 0.13613568 0.3424738 -0.05842003 0.4397957
-0.14104353 0.13066643 -2.522035 -0.33117363 0.19147767 -0.0810395 0.53396624 0.18176179
0.27704066 0.13975912 0.34227446 0.18164472 -0.08975688 -0.27403724 0.19104116 -0.5823942
-0.03768861 -0.1788303 0.13352169 -0.14885424 -0.23294125 -0.9173867 0.059701666 0.862189
0.051958166 -0.06346943 0.41991103 -0.5140425 -0.27744672 0.02807878 -0.058037743 0.27241552
-0.20447682 0.18425566 0.27882856 0.100401826 -0.17681116 -0.08852006 0.32236376 -0.09400037
0.104447834 -0.71981716 0.19812877 -0.22718726 -1.0499456 0.35264316 0.7549867 -0.45875636
0.36499307 -0.06388536 -0.06782738 0.19147553 -0.1124626 0.023682455 -0.0062517016 0.6870801
-0.79002327 -0.14647047 -0.043478064 0.8431327 0.023687981 0.22136019 -0.4262111 -0.025130438
-0.21058124 0.002935031 0.30460474 -0.24512824 0.19528972 0.029696204 -0.036729164 0.2405039
0.3634351 -0.05846226 -0.1454862 -2.5467 0.26150542 0.2868399 -0.24091141 0.114612736
0.17972039 0.22809334 -0.16771631 -0.078906655 0.50599647 -0.1967108 0.049120516 0.21062347
-0.01634559 0.10887157 0.020414451 -0.34256548 0.08368893 -1.7054588 0.013856925 0.27130574
-0.38226268 0.10915271 0.034192685 0.47512263 -0.17091651 -0.16520749 -0.5722065 0.014795838
0.22670038 -0.33317164 0.16085596 -1.2980049 -1.0328892 -0.01577494 -1.0236888 0.120889924
-0.38539508 -0.51988614 -0.04321055 -0.108690225 0.032328617 -0.43999854 0.28589204 -0.19872145
-0.35739112 -0.6128531 -0.087582156 0.054528885 0.05707743 0.40193367 0.2635063 0.034524575
-0.107531205 0.118862584 0.058717564 0.27797663 -0.44401175 0.028803091 0.4126206 -0.17928185
-0.016554104 -0.13102679 -0.48860392 0.20332305 0.37455046 -0.14936194 0.50376105 -0.062614
0.083336815 -0.074064195 0.15864888 0.0826988 0.037823007 0.49167514 0.39724895 0.23544534
0.06718895 0.72661394 -0.37119344 -0.109307885 -0.17271993 -0.0071873805 -0.2457305 0.03554558
0.031199677 -0.3587419 0.16261238 0.23066376 -0.05919129 0.07197646 -0.30890206 -0.030433625
0.50941956 -0.37174428 -0.033063706 0.16779788 0.3074599 -0.27483997 -0.35208058 0.09607097
-2.6366878 -0.07670415 0.35046884 -0.41419467 0.10763655 0.12395109 -0.42040893 -0.3776424
0.06908732 0.15478608 0.040622134 -0.31471226 0.18908255 -0.25287881 -0.14039515 0.31362247
-0.070371866 0.016323024 0.079941615 -0.27474976 0.334042 -0.052153822 0.3220468 -0.0032779798
-0.19840246 -0.4186362 0.03034269 -0.15983057 0.0037202328 -1.7048259 0.17726587 0.018565279
-0.2506087 0.07971653 -0.048330467 -0.22005321 -0.56001675 -0.56679523 -0.41614366 0.39118204
-0.24747987 0.074099936 -0.22385016 -0.20975843 0.10343718 -0.02029303 0.114614144 0.45968166
0.18151657 0.5126323 0.18217215 0.12698199 -0.07268969 -1.7470033 0.48011747 0.05724775
-0.4450353 0.27989033 0.21865442 0.5740385 -0.09838669 -0.07991852 0.32689238 0.14584935

network.2.bias f4 [128]
00000000: db8b 38bf c791 a83c 68ae d13e 3074 253e
00000010: b771 013f bea6 5a3f 6de6 663e 2351 b9bd
00000020: 7ac4 e3be f249 a13e 8a8b e5bd 212a e6be
00000030: 7451 c1bd b7f2 683e b466 1abe c8d5 913e
00000040: 3707 c7bd 46fe 103f 1f84 b13e a27e d43d
00000050: 367a 1c3d f597 1d3e acbb 2f3c fb5b 28bd
00000060: 4ecb 75be f3bc 213e e9f8 a03e 1704 e23e
00000070: 6042 b73d 6442 9bbc 7c97 b83e 028a 6c3e
00000080: f03f 77be 4196 a63e 2859 fc3d d5bb 66bf
00000090: ecce ffbd c3fb c43d 9c51 aa3e 149c 723e
000000a0: e993 dabb ec10 143d 7ff2 ad3e faf9 eb3c
000000b0: 59db ca3e 542b 853e db82 88bc 5243 3fbe
000000c0: 1a32 c23e 3fa0 b53e d55f bc3e 3829 0a3e
000000d0: d3cb a73e 367e b0be 825c 63be c351 42bd
000000e0: d463 d63e 7816 a1bd b61e c2be 55f0 f4be
000000f0: 078c 603f 9542 dabe a9f2 a7bd 0fd2 efbd
00000100: 7082 91be 5150 92be 7997 853e aebc 92bf
00000110: 0adf e53d 69a1 a0be 276c 2c3d b511 09bf
00000120: ecdd d6bd 2200 e7bd 7e3e 863e 8ebf 873e
00000130: f78e 03bf 479f 993d e80a d43e a12b e1bd
00000140: 416b fe3c 6920 7e3e 829f 8c3e 77cb b93e
00000150: 1dbb 3ebc 66af 00bf 7564 28be 9cbc a43b
00000160: 9d42 bd3d dea8 c3bd 8982 6ebe f2e7 603e
00000170: bf49 c23e 4a9c 273f b825 fcbe 237a b9bd
00000180: 58fe f63e 30af 33bf 61c5 1cbd 8518 873e
00000190: 1b49 e83d 055f 57bf 743e a23c 914e 74be
000001a0: 2d4f 85be 10be b43e 8a2b 35be 7343 723e
000001b0: 9c8e 83be 81e6 91be d322 b3bd eb53 0a3e
000001c0: 6c45 d63d 9ef3 4d3d 63ce 72bd 89d8 bbbe
000001d0: 0ce3 bc3e ad04 a0be 4b54 613d 981f dfbd
000001e0: a103 3c3f 87c7 dbbe 7d92 743e fd08 98bd
000001f0: ef02 bb3e 3f5d 8abd ed36 06bf c7f9 ac3e
-0.720884 0.020577325 0.40953374 0.16157603 0.5056414 0.8541068 0.22548838 -0.09048679
-0.44485837 0.31501728 -0.112082556 -0.44954017 -0.09439364 0.22748838 -0.1507824 0.28483415
-0.09718173 0.5663799 0.34671113 0.10375716 0.038202487 0.15389998 0.010725897 -0.041103344
-0.24003336 0.15794735 0.31439903 0.44143745 0.08948207 -0.018952556 0.36053073 0.23099521
-0.24145484 0.3253651 0.12321693 -0.9013036 -0.12490639 0.09618332 0.33265388 0.23692352
-0.0066704643 0.03614895 0.33974072 0.028805722 0.39620474 0.2600962 -0.01666396 -0.18678024
0.3792885 0.3547382 0.36791864 0.13492286 0.32772693 -0.3447129 -0.22203258 -0.047441255
0.41873038 -0.07865614 -0.37914056 -0.4783961 0.87713665 -0.42628923 -0.082005806 -0.11709987
-0.28419828 -0.28576902 0.26092127 -1.146383 0.11224182 -0.31373146 0.04209533 -0.53542644
-0.10491547 -0.11279322 0.26219553 0.26513332 -0.5139002 0.07501083 0.4141457 -0.1099465
0.031057002 0.24817051 0.27465445 0.36288044 -0.011641291 -0.50267637 -0.16444571 0.005027367
0.09241221 -0.09553693 -0.23291983 0.2196348 0.3794689 0.65472853 -0.49247527 -0.09056499
0.48240924 -0.7018919 -0.038274173 0.26385894 0.11342069 -0.84129363 0.01980517 -0.23858096
-0.2603697 0.35301256 -0.1769239 0.23658542 -0.2569474 -0.28496173 -0.087468766 0.13508575
0.1046246 0.05028116 -0.059278857 -0.3668864 0.36891973 -0.31253567 0.05501203 -0.10894698
0.7344304 -0.42925665 0.23884006 -0.074235894 0.36525676 -0.067560665 -0.5242756 0.33784315

network.4.weight f4 [128, 128]
00000000: 7611 19bf b1c3 06be e44b bbbd f7fa 9abe
00000010: 73d6 39be 99c3 a83e 7425 d9be eb62 4dbd
00000020: 1ee6 9dbe b2f1 c1be a2f0 de3c 4606 07c0
00000030: e7b2 76be 33d0 593e 7f85 523e 15c9 063e
00000040: 6910 dc3e a963 21bf d9ec ac3e c345 3f3d
00000050: 3512 163f df9c 283e dce8 53bd fc6a b73e
00000060: 25b7 29be a8e6 c9be 7812 0fbe 8b25 e5be
00000070: b56d 5ebe 135d f23c f59f 533e dc0f b73d
00000080: 12f0 733e c89d 03bf 2b22 f43e 5e90 88bc
00000090: b8cb edbc d60d e73c d17e ad3d 406c dd3d
000000a0: b673 e1bd 58ba 78bf feaf 56be 9f57 3cbe
000000b0: 0a06 ffbb 69d4 903e 7e41 863e a2b2 5fbb
000000c0: a614 f6bc 1603 44bd 54f6 69bf 7244 17bd
000000d0: a2b1 b1bd dd4d bbbe a38a 143e 9020 003e
000000e0: 2570 cdbe f4b2 2d3e b5e0 303e e16b 45bd
000000f0: 75c6 4e3d 077a b2bd 9cb0 493d c9b7 c23d
00000100: fea9 74bf d6b3 c03e 7c41 24be b257 2f3c
00000110: b4da 713e 07a8 4e3e 278d b33e 8eed 0d3f
00000120: ba68 c73e 18f5 04bf 2b30 7d3d e8df 1abe
00000130: 5a5c 5cbb a560 b0be 0b17 ecbd 1979 56be
00000140: a174 f43e 81da e13e b166 23bd ea7a 283e
00000150: ef1a dabc 1a14 3cbe 162f fd3b fb25 42c0
00000160: ffd1 f13c e949 c73e b10b 7dbe d9b9 c83e
00000170: e0b0 2cbf b641 073f 12ad 0cbe bf44 593d
00000180: c208 eabf c979 3a3e a5d9 393d 44c1 d73d
00000190: 0d2f 77bd 19f7 5f3e 333c 2cbf 587d 4dbe
000001a0: a004 293e 910c 4b3e 2940 abbe 20c5 803d
000001b0: 891e 273e 996f 083e 04bf e33e 6665 c43e
000001c0: c455 b83e 489d 5bbe 088c a73d b0f3 3d3e
000001d0: f7d7 e6bd ec3e 13be 20e9 31be 3d60 82bd
000001e0: 1491 23be 1bca 07bf b1c0 e03e 5ae1 b73d
000001f0: 3bd2 9fbe cc7e 58bc 4f73 a4bc 96f4 c93e
00000200: 6a95 1d3e f8f8 95be 268d edbc 80e5 bc3e
00000210: ef89 e1bc 2b8e b03e ed1a 3abe dc71 4abd
00000220: 0e9d a53d d13b c2be 162e ee3b a0f2 283e
00000230: 378e 33bd 2d20 59be e597 b13e 0068 07be
00000240: bbae 9ebf 7547 883e 9daa 44bf 19f4 af3d
00000250: 2f4b 123d bebf b23d 8d10 49be 052a 953e
00000260: 5c19 713e b5ba 853c aaa3 31bd 4b25 cd3c
00000270: 3c97 933e 556b 0d3e 4be7 12bf 10f1 763f
00000280: 641f 493e 95b3 32be 59a1 ed3e ff68 8fbe
00000290: 4576 f03c c034 7b3e b864 a33e a58b 52be
000002a0: 8b7f 0b3d 10b7 1abf 83ce 793e 53e3 9fbe
000002b0: 707e 7e3d 849e d33e bc11 db3d d2cc 2abe
000002c0: c91d 763f c45a 963e f28f 733d 382e a43d
000002d0: 77d1 5cbe 8a6e e5be 6e57 553f fc9a 44bf
000002e0: 5ce4 8abe fa80 a0bd ae54 de3d 7ac2 84be
000002f0: 7e10 833e 0809 1ec0 245c 023e 1e41 98bd
00000300: 43d9 8a3e d9fe 64be 2854 d0bd 7b3e 9b3d
00000310: 58da f13e 6167 d4be 1abd ac3d 02aa 94be
00000320: af50 e8bd 7847 bbbe 673a c2be 2d8f 2d3e
00000330: 06ec 4e3e 2ea6 963e a236 8cbe e8d5 52be
00000340: cbaf ed3e 0d2a 3c3e 96a2 c93d 13ec f5be
00000350: 1667 413c 7cb6 e6bc 4160 6c3d 20a3 8e3e
00000360: 24f6 ca3e 070a 9c3d fe92 dbbe 6691 40be
00000370: bb75 35bf edc3 403e b0fa bc3d 2e5d a2bd
00000380: e091 c93e e975 8bbe 10e4 2ebd a57a 2b3d
00000390: 82df 993e c948 4e3f 0e6b c63d 3028 3abe
000003a0: b19f 9cbe da8f 443e a147 27be a21e 37bf
000003b0: e1f7 95be 61ee de3e 680f f6be 451d a0bd
000003c0: e82e 9cbe 36bf 86be 42e7 79bc cdf8 6abe
000003d0: 41b8 aebd 35e9 9f3e 6841 5f3e 87b7 103c
000003e0: f558 353e c4c6 02bf fb50 ba3d a3b6 79bd
000003f0: 21a3 813e f967 a73e c711 31bf 631c 7bbd
-0.5979227 -0.13160588 -0.09145334 -0.30269596 -0.18148212 0.3296173 -0.42411387 -0.050143164
-0.30839628 -0.3787971 0.027214352 -2.109758 -0.24091683 0.21270828 0.20558737 0.13162644
0.4298127 -0.63042694 0.3377445 0.04669739 0.5862153 0.16466092 -0.051735744 0.3582381
-0.1657377 -0.3943379 -0.13971889 -0.44755206 -0.21721537 0.029585397 0.20666488 0.08938572
0.23822048 -0.5141263 0.47682318 -0.016670402 -0.029027805 0.02820484 0.08471454 0.10811663
-0.11008398 -0.9715934 -0.20965573 -0.183928 -0.0077827023 0.28287056 0.26221842 -0.0034133573
-0.030039143 -0.047854505 -0.9139149 -0.03693051 -0.08676459 -0.36582842 0.1450601 0.12512422
-0.40124622 0.16962796 0.17273219 -0.048198584 0.050482232 -0.08714681 0.049240693 0.095077105
-0.9557189 0.37637204 -0.16040605 0.010702061 0.23618585 0.20181285 0.35068628 0.55440605
0.38947088 -0.51936483 0.061813515 -0.15124476 -0.0033624382 -0.34448734 -0.115278326 -0.20944633
0.4774523 0.44112018 -0.039892856 0.16453138 -0.026624171 -0.18367043 0.0077265603 -3.0335681
0.02951908 0.38923576 -0.24711491 0.3920429 -0.6745739 0.5283464 -0.13737896 0.053044077
-1.8283923 0.1821052 0.045373578 0.10534909 -0.060347605 0.21871604 -0.67279357 -0.20067346
0.1650567 0.19829012 -0.33447388 0.062875986 0.16320242 0.13323821 0.4448167 0.3835861
0.36002934 -0.21446717 0.08181006 0.1854999 -0.11271661 -0.14379472 -0.17374086 -0.06366012
-0.15973312 -0.53042763 0.43897012 0.08978529 -0.3121508 -0.0132138245 -0.020074515 0.39444417
0.15389028 -0.2929151 -0.028997969 0.36893845 -0.027531592 0.34483466 -0.18174334 -0.04942499
0.080865964 -0.3793626 0.0072686775 0.16498804 -0.0438368 -0.2120368 0.346862 -0.13223267
-1.2397074 0.26617017 -0.76822835 0.0859148 0.035716232 0.08727978 -0.1963522 0.2913362
0.2354483 0.01632438 -0.043368973 0.025042197 0.2882632 0.13810475 -0.57384175 0.9646158
0.19640881 -0.17451318 0.4641216 -0.28009793 0.02935327 0.24531841 0.3191278 -0.20561083
0.03405718 -0.6043558 0.24395184 -0.31228122 0.0621323 0.41331875 0.10696742 -0.16679695
0.961392 0.29366124 0.05946345 0.08016628 -0.2156428 -0.44810897 0.8333653 -0.7679899
-0.2712735 -0.078371 0.10855995 -0.25929624 0.2559852 -2.4693012 0.12730461 -0.07434295
0.27118883 -0.22362842 -0.101723015 0.075802766 0.47236896 -0.41485122 0.08434506 -0.29035956
-0.11343514 -0.36577964 -0.37935182 0.16949148 0.20207223 0.2942366 -0.27385432 -0.20589411
0.46423182 0.18375416 0.09845464 -0.48031673 0.011804363 -0.028163187 0.057708982 0.2785883
0.39640915 0.076191 -0.42885584 -0.18805465 -0.7088277 0.1882474 0.09227502 -0.07927929
0.39369106 -0.27238396 -0.042697966 0.04186501 0.30053335 0.8057981 0.09688388 -0.18179393
-0.30590585 0.191955 -0.16335918 -0.71531117 -0.2929068 0.43541244 -0.4805863 -0.07818083
-0.30504537 -0.26317757 -0.01525289 -0.22946472 -0.085312374 0.3123261 0.21802294 0.008832819
0.17709716 -0.5108454 0.09097477 -0.06096519 0.2531977 0.32696512 -0.6916775 -0.06130637

network.4.bias f4 [128]
00000000: 7687 963e 7d7a 6f3e 0023 803e 7438 8f3e
00000010: 543c 0d3d 6cbf a73e 7961 bbbd 9e95 f6bd
00000020: fcd6 13be d459 52bd e9ae 80be 27c3 753e
00000030: 4654 1d3f bfa8 a2bd bd66 a43e 5ddf 0abd
00000040: 3686 583e c05f d33e b338 d83d 4eaf 0bbe
00000050: ffc8 e53d b4aa e7bd 6d39 043f e435 9b3e
00000060: 62b9 2e3f 31a4 a4bd d4cd 023e 6198 0bbf
00000070: eda6 23bd 3ccb a83e c09b 493f 81ea 993e
00000080: 5c28 6b3f 914c 1e3e d848 923e b25f 923e
00000090: 5231 16be d5b9 da3e dc46 973e 5fa5 70bb
000000a0: dd11 bf3e 5a0a 18bc 42ed 4fbe 4590 dcbd
000000b0: 6db0 ed3e eae2 f93e f472 503e c99e 2c3d
000000c0: 9417 153f 233f 723e 99ac 80be 0433 eabd
000000d0: 8168 1dbd 62d2 55be 8d52 9e3e aa38 af3e
000000e0: ba85 c7bd 979b 563e bbb1 4a3d b648 973d
000000f0: d9dc a53a 86cc ae3d e7f5 233e 0185 48bd
00000100: 7b57 433e 9d31 ae3c e19b 95bb afd7 bfbd
00000110: 121a 213f f284 95bd 9e4e 9f3d f73f b63e
00000120: 5c26 b93d 11bd 363f 380a 8cbe a84d 253f
00000130: e4af 783e d19a 33be e891 c63e 829e 9e3e
00000140: be21 16be 64d5 1e3e 4105 8cbc cf65 82bd
00000150: 8837 273d fed5 f0bd 5713 583e 72b0 703e
00000160: 448b 9ebd 597c 093f 4365 0bbd e6e4 fa3e
00000170: 6e37 e33e 15a0 b43e 20ba 0e3d 748e 44bd
00000180: 2637 adbe 01bf 263e 3e3c dfbc d9f8 763d
00000190: 3655 123f 5b2e 273e a381 233f fc64 7c3c
000001a0: 2143 d139 3d09 023f 9fd9 293f 723b 5cbe
000001b0: e302 733e 0fd7 72be dd16 11be fe52 9c3c
000001c0: 39f1 aa3b 8101 ad3d c68f e23c 4a47 dd3e
000001d0: 140d 5a3c a48f 7e3e 4b70 2d3c 204a d0bd
000001e0: 2452 02bd 0dc2 943e b6c1 0dbe 9ba0 95be
000001f0: 9c47 e33c fb7e f83e 1e5b fd3d daeb c03e
0.29400223 0.2338657 0.25026703 0.27972758 0.03448136 0.3276323 -0.09149451 -0.12040256
-0.14437479 -0.051355198 -0.25133446 0.24000226 0.61456716 -0.07942342 0.32109633 -0.033904422
0.21144947 0.4128399 0.105576895 -0.13641092 0.112199776 -0.11311856 0.51650125 0.30314553
0.6825162 -0.080391295 0.1277383 -0.54529387 -0.039954115 0.32967556 0.7875328 0.30061725
0.9185846 0.15458895 0.285712 0.28588635 -0.14667252 0.42719904 0.2954625 -0.0036719663
0.37318316 -0.009279812 -0.2030535 -0.10769705 0.46423665 0.48805934 0.20356351 0.042143617
0.582391 0.23656897 -0.25131682 -0.11435512 -0.03842974 -0.20881036 0.30922356 0.3422292
-0.09742303 0.2095779 0.049485903 0.073869154 0.0012654319 0.085351035 0.16011773 -0.048954967
0.1907634 0.021263892 -0.0045657014 -0.0936731 0.62930405 -0.07300748 0.07778667 0.35595676
0.090405196 0.7138224 -0.27351546 0.6457162 0.24285847 -0.17539527 0.38783193 0.30980307
-0.14661309 0.1551109 -0.017092349 -0.06367075 0.040824443 -0.11759566 0.21101128 0.23504809
-0.077414066 0.53705364 -0.034032118 0.4900276 0.44378227 0.35278383 0.03484547 -0.047987416
-0.33831137 0.162838 -0.027250405 0.060295913 0.5716127 0.16326277 0.63869685 0.015404936
0.000399136 0.50795346 0.6634769 -0.21507052 0.2373157 -0.23714851 -0.14168878 0.019082543
0.0052167443 0.084475525 0.027656447 0.43218452 0.013308782 0.24859482 0.010585855 -0.10170388
-0.031816617 0.290543 -0.13843426 -0.29224095 0.027744107 0.48534378 0.12370895 0.3767994

network.6.weight f4 [64, 128]
00000000: 517d 02bc 5b6d 503d 70d6 17bd ef2c f0bc
00000010: 3e39 68bd c6b7 b8bd faca 9d3b 30a4 afbd
00000020: 38dc d53c 21f5 8d3c 97e6 293d ba77 6d3d
00000030: 3d63 e03c bc6e 733c fb11 fbbd 677b 77bd
00000040: 7d70 2e3d f82d 4dbd 5c27 ba3c 2dfa 8cbd
00000050: beb4 b7bd 548f 54bd faf3 08be 5c3d 5d3a
00000060: a7ee 9fbd 4a13 98bd b9dd 30bd 70bf 41bd
00000070: a909 8ebb ccb4 a7bd 9808 9abd 0e16 2cbd
00000080: 8cd4 31bd 76ba 00be a638 98bd 8265 e8bc
00000090: 8262 70bd 2ec7 6d3c 0867 cdbc da35 b9bd
000000a0: a547 d2ba 370a b3bd 7215 81bd 74ae 833d
000000b0: 9e5e 81bc be92 0e3d 45f3 afbc 6f2e c4bd
000000c0: 9385 19bd f758 3dbd 3ed8 e6bd ab80 073c
000000d0: b1c4 473d 985e 14bd d804 803c 7102 98bd
000000e0: 7012 bcbc 1a88 a5bd b833 09bd 3f82 97bd
000000f0: aff4 a23d 6a49 283c a4ab 223c b142 893d
00000100: 29e3 debd b979 aabd bbf4 edbc bf41 973d
00000110: d872 96bd 6c6f 713c d1f4 bbbd 2496 6d3c
00000120: a54f 62bd 7471 1dbe 49c4 dabc 88dd eebd
00000130: 3618 efbb 5ab0 fcbc fc6c 91bd 2e75 9b3b
00000140: c58e 7cbd dced fa3c 1d57 6739 4d21 8fbb
00000150: 0bdb aa3d 083c 103d e195 5fbc 39bc 37bd
00000160: 05fe 1abd 9cba fdbd 7bdf e7bc 2d85 03bc
00000170: fa58 c23c 354e 6c3d f95d e6bd 7dee 69bb
00000180: 66fe 5ebd f06d 243c 1690 9b3d ea6a 2f3c
00000190: 4d68 a5bb 2c3e 6cbd c57e 81bc 0a96 c6bd
000001a0: d540 8abd b67e 8d3c acdc b03d 1c7f 0bbe
000001b0: 1597 74bd b9ae 773c 2fc0 913d 7311 f5bd
000001c0: e9f5 cebd c3ec f1bd cc5f 77bd 9eba 5ebd
000001d0: 11e5 96bc 06c2 42ba 35be 6c3c 157b 67ba
000001e0: 4539 803d 7bf5 4ebd 9a5b 65bc dfc1 04be
000001f0: 05b5 483d 7447 f8bb fd8e abbd 6ce4 bdbd
00000200: 8203 34bd 1dd6 33b9 f998 9c3d 4487 d93b
00000210: d05f cdbd a215 0ebe 3425 913c 2d77 debc
00000220: 0ab6 0cbd e1b4 283d 1e42 9a3d 3033 5d3d
00000230: 8a2a 45bd 132e d93c e760 d33c a5a9 9f3c
00000240: fc43 3f3c a3ff b3bd be82 06bc 757d bdbd
00000250: 9abb a2bd be5d 35bd 3c78 5ebc d963 b5bd
00000260: 7a24 953c 2797 893c 2f7f 243c fe59 f03c
00000270: c4f9 04be 2496 58bd 27b9 45bc 718c 59bd
00000280: 9a1f 50bc f602 02bd 4892 dfbd 633a a3bd
00000290: fd28 b13b b3aa 5ebd 5a27 313d f60b 253d
000002a0: 242d 58bd 64b7 80bd eb31 22be 2861 fd3c
000002b0: 273a adbd 34ec abbb 3681 b43d 3af6 d1bc
000002c0: 4cbc 9cbc 8c2b d4bd d6c6 f8bd 6684 b23c
000002d0: a3c4 933d 038b 053d f85d 78bd 27d5 6ebc
000002e0: cf04 eb3c 2ac2 063c 74df 2fbd 630a 17bd
000002f0: 576e 54bc 3a85 c5bc a443 8aba 435c 34bd
00000300: 9a79 b8bd bfd1 fa39 41dc 93bd 8498 caba
00000310: 602f abbd 69e8 083d c970 95bd 361f a2bd
00000320: efa9 53bd 9e2e c1bd acf4 f7bd a810 a7bd
00000330: fa04 603b 9ecf 9ebd 5f15 c8bc c391 c3bd
00000340: 3a26 a43c 174f 93bc a424 54bd 09bd 27bd
00000350: fad5 05be a8d3 9dbd 3516 e0bd ee67 41bd
00000360: 5cdf b7bd 83f2 a9bd 08bf e0bc 4b9e b5bd
00000370: 2425 1cbd 001b 1bbd d9ae b7bd 0214 33bd
00000380: fe78 65bd 8b84 c33d eb8c 903d 0b71 be3c
00000390: baf7 6cbc 5c24 19bd 158c 2c3c 08dd 5d3d
000003a0: 8360 973d 898f 1dbe 3ea6 e8bd 5b3f c0bd
000003b0: 98b3 f2b9 3675 8dbd 6120 9abc 7828 bebd
000003c0: 7405 89bd 4548 a9bd f1de 7d3d 96f8 01be
000003d0: a854 e9bc 6978 a4bd 9244 233d 6a9d 3abd
000003e0: c474 cdbd dd0a 87bd 1400 b53c 9923 043d
000003f0: 816b f6ba b4b9 91bb 326a cfbd ff67 c6bd
-0.007964448 0.05088554 -0.037069738 -0.029318301 -0.056695215 -0.09019427 0.0048154565 -0.08576238
0.026105985 0.0173288 0.041479673 0.05797551 0.02739107 0.014857944 -0.12259289 -0.06042042
0.042587746 -0.050092667 0.022723846 -0.06883655 -0.08970021 -0.0518945 -0.1337432 0.0008439624
-0.07809191 -0.07425554 -0.0431802 -0.04730171 -0.0043346477 -0.08188781 -0.075211704 -0.04201322
-0.04341559 -0.12571129 -0.0743268 -0.028368715 -0.058687694 0.01451282 -0.025073543 -0.090434745
-0.001604308 -0.08742183 -0.063029185 0.06429759 -0.015792187 0.034807913 -0.021478305 -0.09579169
-0.037480902 -0.04622742 -0.11271714 0.008270423 0.048771564 -0.036223024 0.01562731 -0.07422341
-0.02295801 -0.080826 -0.03349659 -0.07397889 0.07956826 0.0102714095 0.009928618 0.067021735
-0.10883171 -0.08323998 -0.02904736 0.07385587 -0.073461235 0.014736038 -0.091775544 0.014501128
-0.055251736 -0.1537531 -0.026704924 -0.116633475 -0.0072965873 -0.03084581 -0.07100865 0.0047441935
-0.061659593 0.030630998 0.00022062329 -0.0043679834 0.083425604 0.0352135 -0.013646574 -0.044857237
-0.03783991 -0.123891085 -0.028304806 -0.008027357 0.023724068 0.05769177 -0.112483926 -0.0035695129
-0.054441832 0.010035977 0.075958416 0.010706643 -0.005047834 -0.05767648 -0.015807519 -0.096965864
-0.06750647 0.017272335 0.0863584 -0.13622707 -0.059714396 0.015117341 0.07116734 -0.11966219
-0.101054974 -0.11812737 -0.060394093 -0.05437719 -0.018419774 -0.00074294244 0.014449646 -0.00088302913
0.06260923 -0.050527077 -0.01399889 -0.12964581 0.04900076 -0.0075768773 -0.08376882 -0.09272084
-0.043948658 -0.00017150534 0.07646365 0.0066384394 -0.100280404 -0.1387544 0.017717935 -0.027156437
-0.034353293 0.041188125 0.07532142 0.054003894 -0.04813627 0.026511228 0.025803043 0.019490073
0.011673924 -0.08788993 -0.008209882 -0.09252445 -0.079459384 -0.044278853 -0.013578471 -0.08856935
0.01820587 0.016795708 0.010040089 0.029339787 -0.12985903 -0.05287756 -0.01206807 -0.05311245
-0.012702847 -0.031741105 -0.10916573 -0.07970121 0.0054064975 -0.05436201 0.04325042 0.04029461
-0.052777424 -0.06284979 -0.15839355 0.030930117 -0.08458357 -0.0052466635 0.088137075 -0.025630105
-0.019132756 -0.103598684 -0.121473 0.021791648 0.0721524 0.032603275 -0.06063649 -0.014577187
0.028688816 0.008225003 -0.04293771 -0.03687514 -0.01296576 -0.024111379 -0.0010548723 -0.0440333
-0.09007569 0.0004783999 -0.072197445 -0.001545683 -0.083586454 0.03342477 -0.07296903 -0.07916109
-0.051675733 -0.0943272 -0.12107214 -0.08157474 0.0034182654 -0.077544436 -0.024424253 -0.09549286
0.02003776 -0.017982049 -0.051792756 -0.040951762 -0.13069907 -0.07706386 -0.10941736 -0.047218256
-0.08978149 -0.082982086 -0.02743484 -0.088680826 -0.038121358 -0.037867546 -0.089688964 -0.043720253
-0.05602359 0.09546765 0.07058128 0.023247262 -0.0144633595 -0.03738819 0.010531445 0.05416587
0.07391455 -0.15386786 -0.11359833 -0.09387084 -0.00046291645 -0.06907122 -0.018814268 -0.092850626
-0.06690493 -0.082657374 0.06198019 -0.12692484 -0.02848275 -0.08030779 0.039860316 -0.045560278
-0.10032037 -0.06593869 0.022094764 0.03226051 -0.0018800349 -0.0044471864 -0.10127677 -0.096878044

network.6.bias f4 [64]
00000000: 63c5 23bd ee0e e5bd d000 ed3d 486a 72bf
00000010: 331c 50bd 297a 0abd 755d 623f cb2c a73e
00000020: d418 f73e 02c4 603f e7b4 2dbd 20ee e53e
00000030: 9dff 893d e900 2a3c 6a45 c4bd 1601 3abd
00000040: 3b97 503e f176 cbbd 3367 753f 5c15 493f
00000050: 479f 823e 8d27 21bd f1b4 0c3f 3755 373f
00000060: 80fb 553c 5fa1 ee3e e784 37bd 2049 053f
00000070: 3b60 2f3f e273 013f b82e 0dbd 01eb f4bd
00000080: 3b69 3c3f da78 653f a436 833e 6ab4 04bd
00000090: 0417 05be 9d25 0a3e 8349 3cbe 9d01 0d3f
000000a0: ef0b ebbd 2935 153f bced d03e 7f9f da3e
000000b0: 35ba 2a3f 38e8 843a 8dd7 273f c3e0 29bd
000000c0: 1a11 0a3f b878 a43e 0756 b0be aa85 8b3e
000000d0: 09e3 0b3f fab6 0abd b692 8c3e a2af 8d3d
000000e0: 6bab 11be a308 88bc 046a 68bd 7fcb 84ba
000000f0: f6fd ba3e 40d4 873e 19d8 293f 3677 4d3f
-0.039983165 -0.11184488 0.115724206 -0.9469342 -0.050808143 -0.033807907 0.88423854 0.32651362
0.4826113 0.87799084 -0.04240885 0.44908237 0.067382075 0.010376194 -0.09583552 -0.045411192
0.2037019 -0.09934796 0.95860595 0.78548217 0.25512144 -0.03934436 0.54963595 0.716144
0.013060451 0.4660749 -0.04480448 0.52064705 0.6850621 0.5056745 -0.034468383 -0.11958886
0.7359807 0.8963753 0.25627625 -0.03239862 -0.12997061 0.13490911 -0.18387417 0.55080587
-0.114768855 0.5828424 0.40806377 0.4269981 0.6669038 0.0010140007 0.6556328 -0.041474115
0.53932345 0.3212335 -0.34440634 0.27250415 0.54643303 -0.033865906 0.27455682 0.06918265
-0.14225547 -0.01660568 -0.05674173 -0.0010131447 0.36521882 0.2652912 0.66345364 0.80260026

network.8.weight f4 [98, 64]
00000000: 5712 483c e62b 623d 9d68 b83c b577 85bd
00000010: 6a87 39bc 4878 173d 33e7 fe3c 3c8f 8a3b
00000020: d091 3bbd 9a95 813e d1e0 a4bb 267c 49bd
00000030: 06bf 413d 1a8b ce3c f356 29bc 41aa d1bc
00000040: 548e abba df29 3f3d 3163 893d 083b a5bd
00000050: d8f8 39bc 7e13 c1bc 136f a2bb 05f9 57be
00000060: 3709 63bd d13d 9c3c effd 663c 24b0 e3bb
00000070: 2b87 aa3d 8078 6a3d f7ae 4a3d d8ef 4a3d
00000080: e592 9f3d 5e3e 63bd 3251 b8bc efd2 e73d
00000090: e2da 143d 86d7 a4ba 9d6d 9d3c 155d 4f3e
000000a0: 7d1e 8bbd 996c 463d 8d11 3abc 6cec 22ba
000000b0: a358 87be 9278 cb3d 73d3 b93d 24bf f53c
000000c0: ecf9 94bb eb63 17bd 516d 8f3c e5f5 8dbc
000000d0: d9e4 873c 2ef7 273d 2dbb 993c 821c ac3c
000000e0: 346c 15bc b9e4 953b 89a9 34bc 650a a9bc
000000f0: 9fcf 04bd 8b2d f23c 4cbe 99be ae94 84bc
00000100: 7cbc a33d db7f a0bd d525 69bc d252 1d3d
00000110: fedd b6bc 5e24 11be fd87 5bbd e77b 43bc
00000120: 2da8 083d 9e50 4dbd c420 40bc 173f a03c
00000130: 877a ae3a ccb8 3ebc f9b1 6dbd 1ddd b7bc
00000140: 0948 873c 78a2 aa3d a86e 5dbd 374f 463d
00000150: 72ac 473b dded 94bc d4aa 0fbc 6523 d2be
00000160: 2d7c 0e3e 5f02 62bb 21ae 68bd ca32 753c
00000170: 3d86 8c3c 3ed9 433e f6e6 11bd 2031 623c
00000180: 1b81 c9ba b583 d93d 53ff 0cbc d191 2d3d
00000190: 9a89 133e b615 7dbc 5408 923c d402 1ebc
000001a0: 1fb2 663c bc2b 10bd da3d b5ba 3b18 f9bb
000001b0: 8c67 113e 3778 673c caae 3ebd acee abbd
000001c0: 0464 c63c 8ab4 a0bc b3d6 e53b a12b 6fbc
000001d0: 6130 89bc 6c9f 423b 7ffc 14bc 93b3 17bb
000001e0: 0899 ae3d 6ca6 e4bd de54 94bc fffd ca3c
000001f0: d45a 19bc 8fe5 80bb 87e9 b93b b8f6 ea3c
00000200: 0764 abbc ae5b 843d 579b 0b3d 5e64 c73c
00000210: 8ab8 213b 3792 c4bd 48ef a3bd c156 4b3c
00000220: 1524 89bd 1dcf 973e 4c3f 9bbb 6dcb 603d
00000230: f864 063c 22c7 a93c e16f 65bd c50d 0c3d
00000240: 3496 8cbc 4749 b7bd 1639 75bd 0600 90bd
00000250: cae6 0b3d 4809 483c ab51 20bc 8841 48bd
00000260: 2f64 663b ed72 8f3b ccd7 003e e3a1 eabc
00000270: 918f 343e b007 99bd 6dc9 e6bd 0dda 863d
00000280: 12a8 523d 05cb 443e 4247 f93c e9ce b23c
00000290: 35c7 813d 7df8 a8bc e578 f93c f1a3 82be
000002a0: 7968 953c 8d1a bd3c c196 ceba f07a 1bbd
000002b0: 82e4 27be 540c 543d e9e7 923c 198d ccbd
000002c0: 9454 d5bb 5b5b 913c 1025 883c e235 fc3b
000002d0: 958c f7bc 485c 1d3d 6e3c 2dbc 08f4 b63c
000002e0: 6b27 443d c6d6 a33d 5798 b4bd ee51 243e
000002f0: dc75 1d3c ae2b 163d b13e 23be 4f29 49bc
00000300: ecf8 4fbd 0f11 bdbd a40c bb3b 1151 b73b
00000310: e4aa d23c 9c66 2f3e 3590 8cbb 23ba 7fbb
00000320: 9c3d 9bbb 0af3 dbbc a5a1 4cbc dbc8 aabb
00000330: 1255 513b edda 543c e926 f53d e98c fb3c
00000340: 3741 d43b 29da cfbc 4370 9ebd 22ea a33c
00000350: 54c1 f73b eb8e cbbb 4c6e c4bc aa40 763d
00000360: fe80 073d ebe1 34bc 4bc8 a1bd 09ac b83c
00000370: 3d70 983b 0bce 873c 5861 9c3d f908 883c
00000380: f531 a23b 31ff 993b 0658 a73c 3adf c63d
00000390: f3c0 12be 02ed 293c 9856 de3b 22a6 553c
000003a0: 03bc 96bc 62de 833d 0853 97bc bc7c c5bc
000003b0: 77eb 183d 3444 9e3c c00f 62bc 6694 8cbd
000003c0: 1dc5 dcbc 456c 973c d00e 12bc bb22 d4bb
000003d0: 9db1 b73b 6743 a6bc 1fed 0c3d 9d42 1c3d
000003e0: 42ce b7bd 87e9 b93d fd3a 293c 7cb6 da3b
000003f0: af17 fcbe 8aba 1abc 8336 f7bc c410 3f3c
0.012211404 0.055217646 0.022510821 -0.06516973 -0.011323789 0.036979944 0.031116104 0.0042285006
-0.045793355 0.2530945 -0.005031683 -0.049190663 0.047301315 0.025212813 -0.010335672 -0.025593879
-0.0013088682 0.04667079 0.067083724 -0.080679 -0.011350833 -0.023568865 -0.0049570887 -0.21091087
-0.05542871 0.019072445 0.014098628 -0.006948488 0.083265625 0.057243824 0.049483266 0.04954514
0.0779169 -0.0554794 -0.022499654 0.11319529 0.036341555 -0.0012576438 0.019217307 0.20250352
-0.067929246 0.04844341 -0.0113567235 -0.0006215039 -0.26434812 0.09935106 0.09073534 0.02999837
-0.0045463946 -0.036960524 0.01750818 -0.017329166 0.016588615 0.041007213 0.01876601 0.021009687
-0.009120036 0.004574385 -0.011026748 -0.02063484 -0.032424565 0.029562732 -0.30027997 -0.016184177
0.07994935 -0.078368865 -0.014230211 0.03840906 -0.022322651 -0.14174029 -0.053596485 -0.011931396
0.03336351 -0.05012571 -0.011726562 0.019561334 0.0013311662 -0.011640739 -0.058031056 -0.022444302
0.016513841 0.0833177 -0.05406061 0.04841539 0.0030467776 -0.018179828 -0.008768756 -0.4104263
0.13914557 -0.0034486277 -0.056806687 0.014965722 0.017153854 0.1912584 -0.035620652 0.013805658
-0.001537356 0.10620824 -0.008605796 0.04237539 0.1440796 -0.015447071 0.017826237 -0.009644229
0.014080553 -0.03519796 -0.0013827637 -0.0076017655 0.14199656 0.014127783 -0.04655341 -0.083951324
0.024217613 -0.019617338 0.0070141195 -0.014597804 -0.016746702 0.0029697074 -0.009093403 -0.0023147806
0.08525282 -0.11164555 -0.018106874 0.024779318 -0.009360034 -0.0039336155 0.0056735906 0.028682098
-0.02092172 0.06462799 0.03408369 0.024339851 0.0024676644 -0.09598201 -0.08004624 0.01241082
-0.06696335 0.29650202 -0.00473777 0.054881502 0.008202784 0.020724837 -0.0560149 0.03419282
-0.017161466 -0.089495234 -0.059868895 -0.070312545 0.034155644 0.012209244 -0.009785096 -0.04889062
0.003515493 0.004377714 0.1258232 -0.028641647 0.17632891 -0.074721694 -0.11268888 0.06584559
0.051429816 0.19218071 0.030429486 0.021827178 0.06336824 -0.020626301 0.030453155 -0.25515702
0.018238293 0.02308395 -0.0015761481 -0.03795904 -0.16395763 0.05176957 0.017932849 -0.0998785
-0.0065103266 0.017743757 0.016619235 0.007696853 -0.030218402 0.038418084 -0.01057349 0.02233316
0.047889154 0.07999949 -0.08818119 0.16046879 0.009610619 0.03666275 -0.15941884 -0.012277915
-0.0507745 -0.09231769 0.005708294 0.0055943807 0.025716253 0.17128986 -0.0042896518 -0.0039020858
-0.004737569 -0.026849288 -0.012489711 -0.005211932 0.0031941575 0.012991649 0.11970312 0.03070684
0.006477501 -0.025372582 -0.07736256 0.020009104 0.0075608883 -0.0062121055 -0.023978375 0.060120262
0.033082 -0.011040191 -0.07899531 0.02254297 0.0046520517 0.016577741 0.07635754 0.016605841
0.004949803 0.0046996106 0.020427715 0.09710546 -0.14331417 0.0103714485 0.006785225 0.013040097
-0.018400198 0.064389005 -0.01847221 -0.02410733 0.03733393 0.019319631 -0.0137977 -0.06864242
-0.02694946 0.018484244 -0.008914664 -0.0064738668 0.00560589 -0.020295812 0.034405824 0.038149465
-0.089748874 0.09077745 0.010329005 0.006674586 -0.4923682 -0.009443888 -0.03017736 0.011661712

network.8.bias f4 [98]
00000000: 0f95 d93d 5b2e a73e 5af4 2e3d 0948 3cbf
00000010: cd13 87be 4913 de3e 1d9c a9bd d84e e2ba
00000020: 0183 a23e 84c8 93bc 1196 49bf 8253 73be
00000030: 8a84 e63e f0ce aabd a736 d3bd aded a83e
00000040: 62ac 99bd c607 55bf 403c 59be 0434 fa3e
00000050: a53c acbd cf08 44be 4b7b b43e 2dc2 fabd
00000060: 2dc6 5ebf 6242 3fbe 9ea4 0b3f f183 adbd
00000070: ac8f 87be 86f9 c13e ec8b 20be f92a 67bf
00000080: 70b7 24be c3c4 1d3f 40f7 aebd 3baa a5be
00000090: 1ea9 cf3e 6b89 35be 93a4 6ebf da57 09be
000000a0: ea60 323f 6a88 b0bd 0963 bdbe a3d9 dc3e
000000b0: 3e5a 3ebe 9ddb 75bf 31e2 d8bd 7ea7 483f
000000c0: b532 b2bd 5789 d0be 1feb e93e 7848 3ebe
000000d0: 360a 7dbf 82c0 9bbd 1dec 5f3f 37d9 b3bd
000000e0: 61b5 e0be 5200 f83e a90a 38be cf7a 82bf
000000f0: 05d6 35bd 0dfe 773f 233b b5bd 7ae4 eebe
00000100: 78fb 033f e05d 2ebe c5c2 86bf 0732 24bc
00000110: b57b 883f d240 b6bd 6658 fbbe f79a 0c3f
00000120: 22bf 23be d7e1 8abf 66de db3c a899 953f
00000130: 135b b8bd 654e 03bf 8c18 153f 7caf 19be
00000140: daed 8dbf 7b4b 863d 0e8d a33f 03ce babd
00000150: e148 08bf 3f8b 1d3f a665 0dbe 10aa 8fbf
00000160: c9ba d53d 59f6 b13f 4469 bcbd 4e65 09bf
00000170: 338f 203f c30a 10be 7cb4 90bf 4d1c d93d
00000180: 9992 b23f af6d bcbd
0.10624134 0.32652554 0.0427135 -0.73547417 -0.26382294 0.43374088 -0.08281729 -0.0017265929
0.31740573 -0.01803995 -0.7874461 -0.23762324 0.45022994 -0.083402514 -0.103131585 0.32993832
-0.075035825 -0.83214986 -0.2121439 0.4886781 -0.084100045 -0.19143985 0.35250315 -0.12244067
-0.8702114 -0.18677667 0.5454806 -0.084724315 -0.264768 0.37885684 -0.15678376 -0.90299946
-0.16085601 0.6162836 -0.08543253 -0.32356438 0.40558714 -0.17728202 -0.9321987 -0.13412419
0.6967913 -0.08619769 -0.3698962 0.43134794 -0.18589112 -0.9603823 -0.105900176 0.7838057
-0.08701078 -0.40729782 0.45687196 -0.18582332 -0.98843706 -0.07605077 0.87469655 -0.08781665
-0.4388838 0.48437744 -0.17972817 -1.0193728 -0.044393558 0.96872026 -0.0884917 -0.4665869
0.51555586 -0.17027998 -1.0528189 -0.010021693 1.0662752 -0.08899082 -0.4909088 0.5492396
-0.1599088 -1.0850171 0.026839446 1.1687517 -0.09001746 -0.51291496 0.5824058 -0.15008348
-1.1088212 0.065573655 1.2777421 -0.09121325 -0.53236204 0.615406 -0.13808307 -1.1223774
0.10436017 1.3903304 -0.09199765 -0.53670204 0.62718505 -0.14066605 -1.130508 0.10601101
1.3950988 -0.09200608
