results/models/trajectories_sc3_n1000_model.pth (torch, 200478 bytes, 10 tensors)

network.0.weight f4 [128, 10]
0	0xbde31a6a	-0.110890225
1	0x3a6c3657	0.0009010783
2	0xbe279ef1	-0.16369225
3	0xbdce6096	-0.10077016
4	0x3dd21efa	0.102598146
5	0x3e83b5dd	0.25724688
6	0x3dc6bc85	0.09703926
7	0x3e70a258	0.23499429
8	0xbe830798	-0.2559173
9	0x3e0fa378	0.14027202
10	0xbe8b8a59	-0.27253988
11	0xbdb6c2cf	-0.089238755
12	0x3d2cb7c5	0.042167444
13	0xbd53c85a	-0.051704742
14	0xbe4b3c42	-0.19847205
15	0x3e7beac2	0.24601272
16	0x3dba242f	0.09088933
17	0xbdf4c089	-0.11950786
18	0x3d0b969d	0.034079183
19	0xbe60d946	-0.21957883
20	0x3e5a29f7	0.21305071
21	0xbdc42a23	-0.095783494
22	0x3e8b0346	0.27150935
23	0x3e07d78c	0.13265818
24	0x3e7f27c5	0.24917515
25	0xbe0301c1	-0.12793638
26	0xbe14201b	-0.14465372
27	0xbe672b57	-0.22575127
28	0xbe9d0049	-0.3066428
29	0x3e67afd9	0.22625674
30	0x3e854d44	0.26035511
31	0x3e0477f6	0.12936386
32	0xbe41e588	-0.18935215
33	0x3e51988a	0.20468345
34	0xbe7042fb	-0.23463051
35	0x3e46be4f	0.19408534
36	0x3c90b652	0.017665062
37	0x3e2e7618	0.17037237
38	0xbd289937	-0.041161742
39	0x3e0f6529	0.14003433
40	0x3ddf4649	0.10902078
41	0xbe65ca33	-0.22440414
42	0xbe68cdce	-0.22734758
43	0xbe95c6e2	-0.29253298
44	0xbe40224b	-0.18763082
45	0xbdb22e1e	-0.087002024
46	0x3df6addb	0.12044879
47	0xbe90e9e1	-0.28303435
48	0xbe0edb0f	-0.13950752
49	0xbe3702c4	-0.17872149
50	0x3e0a4d23	0.13505988
51	0x3d9f4b4e	0.07778035
52	0x3e27503c	0.163392
53	0xbe73e632	-0.23818281
54	0xbe54e916	-0.2079204
55	0xbdfc543d	-0.12320755
56	0xbe0a34e6	-0.13496742
57	0x3e3c7000	0.184021
58	0xbe876e2d	-0.26451245
59	0xbe95d691	-0.29265264
60	0xbe87824d	-0.264666
61	0x3b5fd58c	0.0034154383
62	0x3e8a0223	0.26954755
63	0xbe6461b7	-0.223029
64	0xbd637b5e	-0.055537574
65	0xbe588bce	-0.21147081
66	0xbd948cbb	-0.07253405
67	0x3e8e7aeb	0.27828154
68	0x3d862edd	0.06551907
69	0x3ea91b36	0.33028573
70	0xbe5b2b76	-0.21403298
71	0x3e8b55e5	0.2721397
72	0xbe72a21f	-0.23694657
73	0xbe96fb28	-0.29488492
74	0x3e058c7e	0.13041875
75	0x3e32b49a	0.17451707
76	0xbe9f9590	-0.31168795
77	0xbe9c3460	-0.3050871
78	0xbe84dbcf	-0.2594895
79	0x3db161b2	0.08661212
80	0x3d260d46	0.040540002
81	0xbe01272d	-0.126126
82	0x3e640d26	0.2227064
83	0xbe277f87	-0.16357242
84	0xbe82ad06	-0.2552263
85	0xbe9331e1	-0.28748992
86	0x3e42935e	0.19001529
87	0xbe181407	-0.1485139
88	0x3d9e17f5	0.07719413
89	0x3d8acb64	0.06777075
90	0xbd28a2a0	-0.041170716
91	0xbe6d605a	-0.23181286
92	0xbe78e4c5	-0.24306019
93	0xbd852935	-0.06502
94	0x3e10adf7	0.14128862
95	0x3dcae1e0	0.099063635
96	0xbe91b820	-0.2846079
97	0xbe03090e	-0.12796423
98	0x3e6fc141	0.23413564
99	0xbe8abb41	-0.27095988
100	0x3d8efbc7	0.069816165
101	0xbe078c83	-0.13237195
102	0xbe5e0e02	-0.21685031
103	0xbec0a5c0	-0.37626457
104	0x3e44102f	0.19146799
105	0x3e868e47	0.26280424
106	0xbe6db6c5	-0.23214252
107	0xbe9ec758	-0.31011462
108	0x3e1ea765	0.15493543
109	0xbc1f9fe3	-0.00974271
110	0x3db3b4cc	0.08774719
111	0xbe6e0956	-0.23245749
112	0xbd6d3f24	-0.057921544
113	0xbe8357ff	-0.25653073
114	0xbc385b92	-0.011252301
115	0xbd0f04c5	-0.034916658
116	0xbd58d339	-0.052935813
117	0xbe2ce733	-0.1688507
118	0xbe806afc	-0.25081623
119	0x3e3f5726	0.18685588
120	0xbd9a6a21	-0.07539774
121	0xbe9ec277	-0.3100774
122	0x3e374dad	0.17900725
123	0x3e0cbe20	0.13744402
124	0xbde02072	-0.109436885
125	0x3e0e345c	0.13887161
126	0xbe94d823	-0.2907115
127	0x3d10c7b4	0.0353467
128	0xbda80e9b	-0.08205911
129	0x3d1604d2	0.03662569
130	0x3e5a3ec4	0.21313006
131	0xbe6b3d91	-0.22972704
132	0xbe8334e3	-0.25626287
133	0xbceec91f	-0.029148636
134	0xbdf7ed80	-0.121058464
135	0x3caf9cae	0.021437015
136	0xbe3bb7fa	-0.183319
137	0xbdfdc2e8	-0.12390691
138	0xbe69e173	-0.22839908
139	0xbdb202c1	-0.086919315
140	0xbc531042	-0.012882294
141	0x3e3d2c48	0.18473923
142	0xbe926ce0	-0.2859869
143	0xbdb4b7d9	-0.08824129
144	0x3e2ece60	0.17070913
145	0x3c0a9a7b	0.008459683
146	0xbd66fbeb	-0.05639259
147	0xbe423677	-0.18966089
148	0x3e67e057	0.22644173
149	0xbe2772e0	-0.16352415
150	0xbe9ebd45	-0.31003776
151	0xbc8f7f3b	-0.017516723
152	0xbd230d28	-0.03980747
153	0x3dbd2323	0.092352174
154	0xbe9cdc3f	-0.30636784
155	0x3e983e5f	0.29735085
156	0xbe04f9f5	-0.12985976
157	0x3e6397ae	0.2222583
158	0xbd8ace3d	-0.06777618
159	0x3e1ef016	0.15521273
160	0x3e5e80fb	0.2172889
161	0x3e58142c	0.21101445
162	0xbe339226	-0.1753622
163	0xbe4d1588	-0.20027745
164	0x3e7b6c04	0.24552923
165	0xbe21981c	-0.15780681
166	0x3d5d6b01	0.054057125
167	0x3e950935	0.29108587
168	0x3dd7977e	0.10526942
169	0xbe23e258	-0.16004312
170	0x3e591ea2	0.21203092
171	0xbdd6268d	-0.10456572
172	0x3df548f4	0.11976805
173	0xbc6e1637	-0.014531664
174	0xbe901472	-0.281406
175	0x3db12ba9	0.08650906
176	0xbe9dcb62	-0.3081923
177	0xbe43d2b5	-0.19123347
178	0xbe926487	-0.2859232
179	0xbdaffc51	-0.085930474
180	0xba576688	-0.00082168775
181	0xbe96fc0e	-0.29489177
182	0xbe9bd2e8	-0.30434346
183	0xbe6281f1	-0.22119881
184	0x3e219b5b	0.1578192
185	0xbe2a4df4	-0.166313
186	0xbe588b53	-0.21146898
187	0x3e3726eb	0.1788594
188	0x3d7318e4	0.05934991
189	0xbe5578ea	-0.20846906
190	0x3d32a3ac	0.04361312
191	0xbd7bef71	-0.061507646
192	0xbda024db	-0.078195296
193	0xbdb86060	-0.09002757
194	0xbe86550b	-0.26236758
195	0x3e0798a6	0.13241825
196	0xbda4a2db	-0.08038875
197	0xbe28933a	-0.16462412
198	0x3d7dece3	0.06199349
199	0x3e993405	0.299225
200	0xbc9f1cd3	-0.019422924
201	0x3e96d405	0.29458633
202	0x3e075b3e	0.132184
203	0xbe6d92e1	-0.23200561
204	0x3c22c110	0.009933725
205	0x3e8dce7c	0.27696598
206	0x3e0960a8	0.13415778
207	0x3e9a2156	0.30103558
208	0x3b249264	0.002511167
209	0x3e4e7640	0.20162296
210	0xbd715635	-0.058920104
211	0x3e695a30	0.2278831
212	0x3b85b08b	0.0040798835
213	0x3e4fb270	0.20282912
214	0xbcd55df9	-0.026045786
215	0xbe6058fa	-0.21908942
216	0xbdd5c7a9	-0.10438473
217	0xbe4df955	-0.20114644
218	0xbe12b542	-0.14326957
219	0xbd6c5828	-0.05770126
220	0x3dafc8f8	0.085832536
221	0xbc9b7b6e	-0.018979754
222	0x3e5bfc10	0.21482873
223	0x3e337dbe	0.17528436
224	0xbe97c450	-0.29641962
225	0x3e9a45b6	0.3013131
226	0xbe0c9987	-0.13730441
227	0x3e811662	0.2521239
228	0xbe9dff73	-0.30858955
229	0x3e1be81b	0.1522526
230	0x3e5957a7	0.21224843
231	0xbdc8e5eb	-0.09809478
232	0x3e197543	0.14986138
233	0xbd4d9115	-0.05018719
234	0x3e7085a0	0.23488474
235	0xbe889e12	-0.26683098
236	0x3e5e1e59	0.21691264
237	0xbe34d495	-0.17659219
238	0xbe363b39	-0.17796029
239	0xbbc7a743	-0.006092937
240	0x3e3a0965	0.18167646
241	0x3e595c14	0.21226531
242	0x3e65b6af	0.2243297
243	0x3dc0aa8a	0.09407528
244	0x3e129961	0.14316322
245	0xbe98fbea	-0.29879695
246	0x3ea0a94e	0.3137917
247	0xbe9012f0	-0.28139448
248	0xbda23d8d	-0.07921896
249	0x3e595ff7	0.21228014
250	0xbe5dd24b	-0.21662252
251	0xbe5995f3	-0.21248607
252	0x3e3a5c97	0.18199383
253	0x3e32db4d	0.17466469
254	0x3e29d6d6	0.1658586
255	0xbe87bf2c	-0.2651304

network.0.bias f4 [128]
0	0xbe771138	-0.24127662
1	0xbd8860ef	-0.066591136
2	0xbe5df616	-0.21675906
3	0xbe943380	-0.2894554
4	0xbddb6e49	-0.107143946
5	0xbd70da91	-0.05880219
6	0x3dd0f552	0.10203041
7	0x3e8e119d	0.27747813
8	0xbde2b608	-0.11069876
9	0x3e53b9cc	0.20676345
10	0xbe82ab43	-0.25521287
11	0xbd7396a7	-0.059469845
12	0xbe561674	-0.20907003
13	0x3e08ec00	0.13371277
14	0xbe3d8ef5	-0.18511565
15	0xbe891b3c	-0.2677859
16	0x3e590dca	0.21196666
17	0x3e62b365	0.22138746
18	0xbc96c704	-0.018405445
19	0xbe6ff24b	-0.23432271
20	0x3d95e44d	0.073189355
21	0xbd32a16f	-0.043610986
22	0x3e9a50f1	0.30139878
23	0x3d5a7037	0.053329673
24	0xbd68ecf9	-0.05686662
25	0xbe889ec2	-0.26683623
26	0x3df18427	0.11792784
27	0xbeabf2b6	-0.3358361
28	0xbea8bf4a	-0.32958442
29	0x3e23001a	0.15918007
30	0x3e0a0daf	0.13481782
31	0x3e37eae8	0.17960703
32	0x3e92a8fb	0.28644547
33	0xbde2b066	-0.110688016
34	0x3db4f195	0.088351406
35	0x3e99745e	0.29971594
36	0xbe56eb2d	-0.2098815
37	0x3e9f2097	0.31079552
38	0x3e8ec460	0.27884197
39	0x3e9f22d9	0.31081274
40	0x3c77a8d2	0.0151159335
41	0x3deface5	0.11702899
42	0x3e0513e8	0.12995875
43	0xbe3106af	-0.17287706
44	0xbe9a8775	-0.3018147
45	0x3dd84a79	0.105610795
46	0xbe711a3c	-0.23545164
47	0xbd8ec5c9	-0.06971318
48	0x3dfbcc80	0.12294865
49	0xbe307521	-0.17232181
50	0xbdce8fdd	-0.100860335
51	0x3e9441c0	0.28956413
52	0x3b23dd83	0.0025003857
53	0xbe3db951	-0.18527724
54	0xbe913790	-0.28362703
55	0x3e8c5c9f	0.27414414
56	0xbe98fd29	-0.29880646
57	0xbd8fde54	-0.070248276
58	0xbe8b4291	-0.27199224
59	0x3d9fde94	0.07806125
60	0xbea211d9	-0.31654242
61	0x3b82dec5	0.0039938414
62	0xbe58b541	-0.21162893
63	0xbe4764d3	-0.19472055
64	0xbdfb4d9d	-0.12270663
65	0x3e4c9d24	0.1998182
66	0x3cf291f6	0.029610615
67	0x3e075ee8	0.13219798
68	0x3e733444	0.23750407
69	0x3e800a97	0.2500808
70	0x3d27031a	0.040774442
71	0x3d2325dc	0.039831027
72	0xbe78ed3e	-0.2430925
73	0x3ab75a52	0.001398871
74	0x3d4147b2	0.047187515
75	0xbe395073	-0.18097095
76	0xbda53567	-0.08066826
77	0x3dbc8a47	0.09206062
78	0x3e699ff1	0.22814919
79	0x3e0849ce	0.13309404
80	0xbddbe6b5	-0.10737363
81	0xbde6de3a	-0.11272855
82	0x3de573cf	0.11203729
83	0x3ce533bf	0.027978776
84	0xbe298397	-0.16554104
85	0x3dacf77f	0.08445644
86	0x3e9ba3d3	0.30398425
87	0xbdfe8596	-0.12427823
88	0x3d6b0014	0.05737312
89	0x3e9037de	0.28167623
90	0xbd8c58f3	-0.06852903
91	0x3dab5067	0.08364945
92	0x3e3965a8	0.18105185
93	0xbe2e409c	-0.17016834
94	0x3e08a631	0.13344647
95	0x3e96af5b	0.2943066
96	0xbe2f57c0	-0.17123318
97	0x3e1c7277	0.1527804
98	0xbe8f4a5a	-0.27986413
99	0xbe79ed2c	-0.2440688
100	0x3e4fea50	0.20304227
101	0x3d304b4e	0.043040566
102	0x3cb023e3	0.021501487
103	0x3ddaad2d	0.10677562
104	0x3e8571af	0.26063296
105	0x3d8d87ea	0.06910689
106	0xbe489edc	-0.1959185
107	0xbd4a806d	-0.049438883
108	0x3e602d24	0.2189222
109	0x3e0102f1	0.12598778
110	0x3e9b7657	0.30363724
111	0xbe866854	-0.2625147
112	0x3e25b3b3	0.16181831
113	0x3e7c7816	0.24655184
114	0x3c9fcb62	0.01950616
115	0x3d97ebce	0.07418023
116	0x3e7e0b11	0.24808909
117	0xbe6ef4fa	-0.23335639
118	0xbe606b78	-0.21915996
119	0xbdb32183	-0.08746626
120	0x3d7b5fb4	0.061370566
121	0xbe3ece7f	-0.1863346
122	0x3c7feb47	0.015620059
123	0xbe371025	-0.17877252
124	0xbe6087fb	-0.21926872
125	0x3d166b4b	0.036723416
126	0xbe029ca6	-0.12755069
127	0x3d05a328	0.0326263

network.2.weight f4 [128, 128]
0	0xbcab9595	-0.02094535
1	0xbd5dde4a	-0.05416707
2	0x3d1267d7	0.03574356
3	0x3d32c7e2	0.043647654
4	0xbda67f8a	-0.08129795
5	0xbc93022a	-0.017945368
6	0xbc92ab54	-0.017903961
7	0x3cf8addc	0.03035634
8	0x3da4302d	0.08017001
9	0x3d0dc69b	0.034613233
10	0x3d82aa39	0.06380124
11	0x3d942f39	0.072355695
12	0xbd78b6af	-0.060721096
13	0xbcaed65b	-0.021342447
14	0xbd49bf9e	-0.049255006
15	0x3b1af5c0	0.0023645014
16	0xbd322a70	-0.043497503
17	0x3d924f63	0.07144048
18	0x3cf2d5c0	0.02964294
19	0x3da9ddcc	0.082942575
20	0x3d5554d4	0.05208285
21	0x3d98addd	0.07455037
22	0x3d16bdef	0.03680223
23	0xbd22ed66	-0.039777182
24	0x3d916e59	0.07101125
25	0x3b8c43f1	0.00428056
26	0xbd23c3ff	-0.03998184
27	0x3c8a620b	0.016892454
28	0x396e1b42	0.00022707603
29	0x3b44a6ff	0.0030006764
30	0xbcc419dd	-0.023938114
31	0xbc279184	-0.010227565
32	0x3da6602c	0.08123812
33	0xbdaa4276	-0.08313458
34	0x3d9ebd33	0.07750931
35	0xbda5ed27	-0.08101874
36	0x3d714681	0.05890513
37	0x3ade3937	0.0016954307
38	0x3caadd68	0.020857528
39	0xbbb042df	-0.0053790654
40	0xbdaa378c	-0.08311376
41	0x3d90cb0b	0.070699774
42	0xbd79f65f	-0.061025973
43	0xbc4562d2	-0.012047486
44	0xbc908fa6	-0.017646622
45	0xbd187f6e	-0.0372309
46	0x3d8613b8	0.0654673
47	0xbbf6147b	-0.0075097657
48	0xbdb4e1c7	-0.08832126
49	0xbd0bb09e	-0.034103982
50	0xbd860af4	-0.06545058
51	0xbc0a88a5	-0.00845543
52	0xbd661e07	-0.05618098
53	0xbda453c8	-0.080237925
54	0xbda5cfeb	-0.08096298
55	0x3d94d8fe	0.072679505
56	0x3c7caf5d	0.015422669
57	0xbd8cc4dc	-0.068734854
58	0xbd0f5fba	-0.0350034
59	0xbd040798	-0.032233804
60	0x3c519195	0.012791057
61	0x3d95620f	0.07294094
62	0x3d17c707	0.03705504
63	0x3d9a27d8	0.07527131
64	0x3d807784	0.06272796
65	0xbca8fe0b	-0.02062895
66	0x3db48e0e	0.08816157
67	0xbd77f1e8	-0.060533434
68	0x3cf6da88	0.0301335
69	0xbd349468	-0.044086844
70	0x3d8a846f	0.06763541
71	0x3a9a8c64	0.0011791107
72	0xbd284877	-0.041084733
73	0x3d0cca4e	0.03437262
74	0x3d12db4e	0.035853676
75	0x3aa001a2	0.0012207518
76	0xbdbe1f7b	-0.09283348
77	0x3d29442d	0.041324783
78	0xbbac56de	-0.005259379
79	0x3d22db13	0.039759707
80	0x3d8280b1	0.06372202
81	0xbcad8d21	-0.02118546
82	0xbd202938	-0.03910181
83	0x3af0971f	0.0018355584
84	0xbcf70f8c	-0.03015878
85	0xb93ff518	-0.00018306484
86	0x3ba3fef6	0.005004759
87	0xbc79126d	-0.015202147
88	0x3c297cde	0.010344712
89	0xbd5deb8b	-0.05417971
90	0x3ba921bd	0.0051614926
91	0xbd90fe9f	-0.07079815
92	0x3cdfff79	0.027343499
93	0x3b2e9b8c	0.0026643006
94	0xbd7c6095	-0.061615545
95	0x3d6ccdf1	0.05781359
96	0x3d9065fc	0.07050702
97	0xbce68fcb	-0.028144738
98	0x3ce2c8f5	0.027683714
99	0xbcdf8a3e	-0.027287599
100	0x3d7b755b	0.061391216
101	0x3d13059f	0.035894033
102	0xbbb8ab45	-0.0056356513
103	0x3d59fc37	0.053219046
104	0xbd5d80cb	-0.054077905
105	0xbcf96de2	-0.030447904
106	0xbda6a9d7	-0.08137863
107	0xbc8e0e7b	-0.01734089
108	0xbdae23b5	-0.08502904
109	0x3da22459	0.07917089
110	0x3d2e3580	0.04253149
111	0x3da8f8aa	0.08250554
112	0x3cc75f28	0.024337366
113	0xbd947d57	-0.07250469
114	0x3d2596cc	0.040427014
115	0xbdabac7b	-0.083825074
116	0xbb9f4cb4	-0.0048614386
117	0xbd9ac4ae	-0.07557045
118	0x3ceb6b4e	0.02873769
119	0x3d01faa5	0.031733174
120	0xbce70734	-0.028201677
121	0x3da6f76f	0.08152663
122	0xbcdc5ab9	-0.026898729
123	0xbd0f5a74	-0.034998372
124	0xbd9f7594	-0.07786098
125	0xbcfd693f	-0.030933974
126	0x3dac939a	0.0842659
127	0x3cbe3bab	0.023221811
128	0xbdacc083	-0.08435156
129	0x3cb7a5a5	0.022417853
130	0x3cb8ae7c	0.022544138
131	0x3daf9b5b	0.085745536
132	0x3cc1ea52	0.023671303
133	0xbda175e9	-0.07883818
134	0xbdda125e	-0.106480345
135	0xbbb70b6f	-0.00558608
136	0xbd78c3dc	-0.06073366
137	0xbd0cbc3a	-0.034359194
138	0x3d5a092c	0.053231403
139	0xbd190a5b	-0.03736339
140	0xbd50cf68	-0.050979048
141	0xbcb76564	-0.022387214
142	0xbdf287b2	-0.11842288
143	0xbd610be3	-0.054942977
144	0x3b2d1237	0.0026408562
145	0xbd7265a8	-0.05917898
146	0xbd8ca9c8	-0.06868321
147	0x3d0915b8	0.03346798
148	0x3cef2da2	0.029196564
149	0xbdc729e9	-0.097247906
150	0xbca0354c	-0.019556664
151	0x3d9c48c6	0.07631068
152	0xbcfe9c8d	-0.031080509
153	0xbc9f9699	-0.01948099
154	0xbd26dff3	-0.04074092
155	0xbd71b0ad	-0.05900638
156	0xbd4a2d47	-0.049359586
157	0x3bab4cbb	0.005227653
158	0x3bd1d741	0.006403834
159	0x3d888b6d	0.06667218
160	0x3c9a8f8e	0.01886728
161	0xbd15703e	-0.036483996
162	0x3d0a73ee	0.033801965
163	0xbc0ed50b	-0.008717786
164	0x3d7396a1	0.059469823
165	0x3dabfca6	0.08397798
166	0xbde304a8	-0.110848725
167	0x3d5484c9	0.051884446
168	0xbd3d81ae	-0.04626625
169	0x3d46dfc1	0.048553232
170	0xbddeaa8e	-0.108723745
171	0xbda3fc3c	-0.08007094
172	0xbdb06dd9	-0.08614702
173	0xbd0e1086	-0.034683727
174	0xbd42a0c9	-0.047516618
175	0xbc35456f	-0.011063918
176	0xbd04c940	-0.03241849
177	0x3d3cdbd7	0.046108093
178	0x3ccedf2e	0.025252905
179	0x3b867ab8	0.0041039847
180	0x3daf5023	0.08560207
181	0x3bc42e9d	0.005987002
182	0xbcff7c6a	-0.031187255
183	0xbd4b3d01	-0.049618725
184	0x3c9185be	0.017763969
185	0x3d176143	0.03695799
186	0xbdca1e2e	-0.098690376
187	0xbd8bef8e	-0.06832801
188	0xbd32388d	-0.043510962
189	0xbb8420ea	-0.004032244
190	0x3d2b9bb3	0.041896533
191	0x3d98d455	0.07462374
192	0xbd440479	-0.047855828
193	0xbd8e0613	-0.06934752
194	0x3cb779c4	0.02239693
195	0x3cc877bd	0.024471158
196	0xbda59bb2	-0.08086337
197	0x3bc1112d	0.00589194
198	0xbdbeaefd	-0.0931072
199	0xbda6f9dc	-0.08153126
200	0xbd8a9537	-0.06766742
201	0xbcc489c3	-0.023991471
202	0xbd4b7304	-0.049670234
203	0xbda8450b	-0.08216294
204	0xbd957b70	-0.072989345
205	0x3c5868ab	0.013208549
206	0xbd2d7b88	-0.042354137
207	0xbcb0d227	-0.021584583
208	0x3cf07539	0.029352771
209	0xbd9ae5ef	-0.075633876
210	0x3d300767	0.04297581
211	0xbd5fb3a9	-0.054614697
212	0xbd8f3f93	-0.06994548
213	0x3d065703	0.032797825
214	0xbd3374bd	-0.043812502
215	0x3d128bd3	0.035777878
216	0xbd5fcfe9	-0.054641638
217	0x3cb110e7	0.021614505
218	0x3d6e9730	0.058249652
219	0xbd31f199	-0.043443296
220	0xbcad4ca6	-0.021154713
221	0xbbd3c186	-0.006462279
222	0xbdc3c9c2	-0.095599666
223	0x3a56ea90	0.00081984047
224	0xba1eccfb	-0.0006057766
225	0xbbeeb1f5	-0.0072843977
226	0x3d264615	0.04059418
227	0x3d5e88a7	0.05432954
228	0xbdf4edae	-0.11959396
229	0x3c13a2ae	0.009010954
230	0xbde9f695	-0.11423985
231	0xbdc91e06	-0.0982018
232	0xbc5168e3	-0.012781355
233	0xbd89fb78	-0.06737417
234	0x3c9fbf30	0.019500345
235	0x3d4b8d25	0.049695153
236	0x3bf1560e	0.007364995
237	0x3ac5c8a5	0.0015089704
238	0xb9b08cda	-0.00033674279
239	0x3d16295d	0.03666054
240	0xbdaa9bfe	-0.083305344
241	0xbb8607d0	-0.004090287
242	0xbd73b492	-0.059498377
243	0xbbf12a4a	-0.0073597776
244	0x3d3196cd	0.043356705
245	0xbd78eddb	-0.06077371
246	0xbdae8ff0	-0.08523548
247	0xbd505c94	-0.05086954
248	0xbdc5bd5c	-0.09655258
249	0xbd2f9fb7	-0.042876925
250	0x3d8f44d7	0.06995552
251	0x3d656053	0.056000065
252	0x3c724cc7	0.014788813
253	0x3d8bf57e	0.06833933
254	0xbcded2f2	-0.027200196
255	0x3c5fac37	0.013651899

network.2.bias f4 [128]
0	0xbd6a9013	-0.057266306
1	0x3d0c1ad2	0.034205265
2	0x3c623d9d	0.013808635
3	0xbda5b42e	-0.08091007
4	0xbcb9360d	-0.022608781
5	0x3d6e6d39	0.05820963
6	0x3bb1fbaf	0.0054316144
7	0xbd8be438	-0.06830639
8	0x3935dbe9	0.00017343428
9	0xbd15b65f	-0.036550876
10	0x3c79d817	0.015249274
11	0xbd1b2305	-0.037875194
12	0xbd807964	-0.062731534
13	0x3d4c3ce9	0.049862776
14	0x3da55e69	0.08074648
15	0xbafa8f22	-0.0019116143
16	0xbd4840b6	-0.04888984
17	0x3d2b2845	0.04178645
18	0x3d2dc8c8	0.042427808
19	0x3c042ec5	0.008067791
20	0x3db23355	0.08701197
21	0x3d39ea08	0.045389205
22	0x3d3ba80e	0.045814566
23	0xbabebb7d	-0.0014551725
24	0x3d2e97f7	0.042625394
25	0xbda7191b	-0.08159085
26	0x3d7067ca	0.05869273
27	0x3d9018dd	0.07035992
28	0xbd66bfca	-0.056335248
29	0x3ceec75f	0.029147802
30	0x3de94c68	0.113915265
31	0x3d352500	0.04422474
32	0x3d01b156	0.03166326
33	0xbacbabef	-0.0015538911
34	0x3c0a4aa0	0.008440644
35	0xbd0c6c9f	-0.034283277
36	0x3db41c48	0.08794457
37	0xbda6c513	-0.08143058
38	0x3d57b154	0.052659348
39	0x3dc2756c	0.09495053
40	0xbd6797ff	-0.05654144
41	0xbd252434	-0.04031773
42	0xbcb77bad	-0.02239784
43	0x3d8f500d	0.0699769
44	0x3aca54fc	0.0015436704
45	0xbd875611	-0.06608213
46	0x3d8c6fd9	0.06857271
47	0x3bdecc8f	0.0067992876
48	0x3c8c5232	0.017129038
49	0x3cd204b5	0.02563701
50	0x3c970bfb	0.01843833
51	0xbce84945	-0.02835525
52	0xbda8e304	-0.08246425
53	0xba355d56	-0.000691851
54	0xbd57d76d	-0.05269568
55	0x3d88dc1f	0.0668261
56	0x3d832cee	0.06405054
57	0x3cccc82b	0.024997791
58	0x3c13d5da	0.009023154
59	0x3ce6e7fc	0.02818679
60	0x3d558582	0.052129276
61	0x3d0769b6	0.0330598
62	0x3dc2d9c2	0.0951419
63	0xbd451584	-0.048116222
64	0x3d974b0b	0.0738736
65	0xbd7b880f	-0.061409052
66	0xbcdf84d9	-0.027285026
67	0xbdae10da	-0.08499308
68	0x3ccab178	0.024742827
69	0xbd5e305d	-0.05424534
70	0xbc2796e9	-0.010228851
71	0x3cf16742	0.029468182
72	0x3cb5965e	0.022166427
73	0xbaa5c05c	-0.0012645829
74	0xbdb36bb4	-0.08760777
75	0xbca3ad67	-0.019980146
76	0xbba04022	-0.0048904577
77	0xbca71831	-0.020397278
78	0x3d9e9cdf	0.077447645
79	0x3cbe9e55	0.023268858
80	0x3ca578de	0.020199236
81	0xbc9d08b0	-0.019169182
82	0xbd92f82f	-0.071762435
83	0x3d83cb40	0.06435251
84	0x3d51e64b	0.051245015
85	0xbd1fbd14	-0.03899868
86	0x3d165298	0.03669986
87	0x3cb31835	0.021862129
88	0xbcc10767	-0.0235631
89	0xbd19e56a	-0.037572302
90	0x3c8916b7	0.016734464
91	0xbaf66028	-0.0018796967
92	0x3d75abf5	0.059978444
93	0xbba587d9	-0.0050515947
94	0x3d1ac023	0.037780892
95	0x3d1cc934	0.03827782
96	0xbd02001a	-0.031738378
97	0x3a5bd80b	0.000838638
98	0xbd2b4c96	-0.041821085
99	0x3d0645c6	0.032781385
100	0xbceca790	-0.028888494
101	0x3d90c366	0.07068519
102	0xbd7dc232	-0.061952777
103	0xbd7384d5	-0.05945285
104	0xbc3dc4da	-0.011582578
105	0xbd85003b	-0.064941846
106	0x3d42d0dc	0.047562465
107	0xbd78717e	-0.06065511
108	0xbd3b5eb6	-0.04574462
109	0x3cd3622d	0.02580365
110	0x3b478061	0.003044151
111	0x3ce5e7c4	0.028064616
112	0xbd773e3d	-0.06036209
113	0x3da84540	0.082163334
114	0x3b90447b	0.0044026948
115	0x3d951260	0.072788954
116	0xbd7dd692	-0.06197221
117	0xbc87393b	-0.016506782
118	0x3ba93028	0.0051632114
119	0x3b57fc4d	0.003295678
120	0x3b3f79b4	0.0029216828
121	0xbda3c7ec	-0.079971164
122	0x3d2b7dff	0.041868206
123	0x3d886cae	0.06661354
124	0x3dc0794b	0.09398135
125	0xbcd64db2	-0.026160095
126	0xbd95afe5	-0.0730894
127	0xbd8e7c71	-0.06957329

network.4.weight f4 [128, 128]
0	0xbd9b749a	-0.07590599
1	0x3c82dc8d	0.015974307
2	0xbd7ebcb6	-0.062191688
3	0x3d6b1c30	0.05739993
4	0x3db2bd77	0.08727544
5	0x3d0bcad1	0.034128968
6	0xbd98dd51	-0.07464088
7	0x3d57979d	0.052634824
8	0xbccbbfa4	-0.024871655
9	0xbc3649b2	-0.011125969
10	0xbcaf8e27	-0.021430088
11	0xba1dfb7a	-0.00060265476
12	0xbd07311f	-0.03300583
13	0xbd36de95	-0.044645865
14	0x3ccfe205	0.02537633
15	0xbd7ce5eb	-0.061742704
16	0xbd97a576	-0.07404606
17	0xbda20001	-0.07910157
18	0x3d940a69	0.07228548
19	0xbd5133a3	-0.051074635
20	0x3daeac86	0.08529
21	0x3d9006c6	0.07032542
22	0x3dbbe477	0.091744356
23	0x3c810beb	0.015752753
24	0xbd04003f	-0.032226797
25	0xbcee6b1f	-0.029103814
26	0x3ce78c0e	0.028265025
27	0x3bdf3ed8	0.0068129115
28	0xbc52d116	-0.012867233
29	0x3c8cb591	0.017176421
30	0x3dd11501	0.10209084
31	0x3d9b9f38	0.07598728
32	0xbd4c8b5b	-0.049937587
33	0xbd8dfb40	-0.06932688
34	0xbd25974b	-0.040427487
35	0x3d0e8444	0.034794107
36	0xbd5de4c4	-0.054173246
37	0xbca66921	-0.020313801
38	0x3d8bc4c3	0.06824639
39	0x3d5a449a	0.05328808
40	0xbd34e5c0	-0.04416442
41	0x39ac8e60	0.00032912474
42	0xbcea7a28	-0.028622702
43	0xbd5869a3	-0.052835118
44	0x3da8ba71	0.08238686
45	0x3d77b5c1	0.06047607
46	0x3bd51c64	0.0065036286
47	0x3d6add8b	0.057340186
48	0xbd624dbc	-0.055249915
49	0xbb7ba8da	-0.0038400204
50	0xbb58952a	-0.0033047893
51	0x3d023cf6	0.031796418
52	0xbd188705	-0.03723814
53	0xbd695700	-0.056967735
54	0x3da299e2	0.07939507
55	0xbd8669fa	-0.06563182
56	0x3d52e03e	0.051483385
57	0x3d73cb55	0.059520084
58	0xbd7c578c	-0.06160693
59	0x3d871269	0.06595308
60	0x382043d6	3.821015e-05
61	0x3d98329c	0.07431528
62	0x3d8f55cf	0.069987886
63	0xbc98b5fd	-0.018641466
64	0xbbabef08	-0.0052470006
65	0x3d6c2314	0.05765064
66	0xbdab165d	-0.08353875
67	0xbc9293cb	-0.017892739
68	0xbc514445	-0.012772624
69	0x3d73e0bc	0.059540495
70	0xbc719c1b	-0.014746691
71	0x3c534978	0.012895934
72	0xbc831e16	-0.016005557
73	0x3da1e1b6	0.07904379
74	0x3dd8042d	0.105476715
75	0x3da99d38	0.0828194
76	0x3dc8d2f2	0.098058596
77	0x3d2862b3	0.041109752
78	0x3c24b1e7	0.010052181
79	0xbd720824	-0.059089795
80	0xbcd3f8c1	-0.025875451
81	0x3d130272	0.035891004
82	0x3d5ded25	0.054181237
83	0x3da2d959	0.07951612
84	0x3cd83c24	0.026395865
85	0x3d639a94	0.05556734
86	0x3c172bc8	0.009226747
87	0xbd8a80d7	-0.067628555
88	0x3cffcc1a	0.031225253
89	0x394fec2b	0.00019829038
90	0x3da214dc	0.07914135
91	0x3d9d96a9	0.07694752
92	0xbc8990da	-0.016792703
93	0x3c32a553	0.010903674
94	0x3dc4cfce	0.09609948
95	0x3c8ac418	0.016939208
96	0xbd771e9f	-0.060331937
97	0x3d5f6bfd	0.054546345
98	0x3bba897c	0.005692659
99	0x3c8246b1	0.015902849
100	0xbd8bba9f	-0.068227045
101	0xbd36ee4d	-0.044660855
102	0xbd5ca087	-0.05386403
103	0xbcb3e5d2	-0.021960173
104	0x3d130e64	0.035902396
105	0x3d85fc67	0.065422826
106	0x3d4eb6a2	0.05046714
107	0xbd73100c	-0.059341475
108	0x3d4ab7be	0.049491636
109	0xbd217f43	-0.039428007
110	0xbd279c85	-0.040920753
111	0xbc62cc7e	-0.0138427
112	0xbd886a4f	-0.06660902
113	0x3dbbdf20	0.09173417
114	0xbcc36acb	-0.023854634
115	0x3d479923	0.048730027
116	0xbb02f4a4	-0.0019982243
117	0x3d435b14	0.04769428
118	0x3d26d9ea	0.040735163
119	0x3d6192c4	0.055071607
120	0xbd29d021	-0.041458253
121	0x3cdefaa7	0.02721913
122	0xbd8584eb	-0.06519493
123	0xbda3c75e	-0.07997011
124	0x3dc3e205	0.09564594
125	0x3c22f517	0.009946129
126	0x3cc2431b	0.023713639
127	0x3c47777f	0.012174486
128	0xbd540dfa	-0.05177114
129	0x3da2a86c	0.0794228
130	0xbd346bfe	-0.044048302
131	0x3c51723a	0.012783581
132	0xbd747f80	-0.059691906
133	0xbc91abed	-0.017782176
134	0xbd0c9676	-0.03432318
135	0x3d406471	0.04697079
136	0xbd59dadc	-0.053187236
137	0x3d2de18e	0.042451434
138	0xbdbddaf4	-0.092702776
139	0xbd4fd697	-0.05074176
140	0xbb7e853d	-0.003883674
141	0x3d3c46c9	0.045965943
142	0xbda2c60b	-0.0794793
143	0x3d425ae2	0.047449954
144	0xbcc58918	-0.024113223
145	0xbd9d3b91	-0.07677377
146	0x3c61119f	0.013737111
147	0x3c10f4d5	0.008847435
148	0xbd3e1e91	-0.04641587
149	0x3da7a917	0.08186548
150	0xbcf59214	-0.029976882
151	0xbcc86cb5	-0.024465898
152	0x3d2b0bf1	0.041759435
153	0x3d460b70	0.04835075
154	0x3c0217e4	0.007940266
155	0x3d9c0a01	0.076190956
156	0xbd07b4aa	-0.03313128
157	0xbda30937	-0.07960742
158	0x3d3677d1	0.04454786
159	0x3d7329b5	0.059365947
160	0x3d6e2423	0.05813993
161	0x3da3a66a	0.07990725
162	0xbd4e0ae2	-0.050303347
163	0xbd31ba85	-0.04339077
164	0x3d4a4fef	0.049392637
165	0x3d9250de	0.071443304
166	0x3d9a5769	0.075362034
167	0x3cfbbe4d	0.03073039
168	0x3d8d2339	0.06891484
169	0x3d670a30	0.0564062
170	0xbdb374e3	-0.08762529
171	0xbd4c67b9	-0.049903605
172	0x3d07f785	0.033195037
173	0x3d7061fd	0.0586872
174	0x3d530ad5	0.051524002
175	0xbce18b83	-0.027532345
176	0x3da29c0a	0.07939918
177	0xbd4d93ed	-0.0501899
178	0x3b13080f	0.0022435223
179	0xba2866e4	-0.00064240233
180	0xbb0ec1c1	-0.0021782967
181	0xbc3c386c	-0.011488061
182	0x3d83bf16	0.06432931
183	0xbb80efd5	-0.00393484
184	0xbd315422	-0.043293126
185	0xbcae50bc	-0.021278732
186	0xbd1a869d	-0.037726033
187	0xbd8e650e	-0.069528684
188	0xbccaa391	-0.024736198
189	0xbbd3e0a8	-0.00646599
190	0x3daa4f91	0.08315957
191	0x3d7ae293	0.061251234
192	0x3ca2f150	0.019890457
193	0xbcc4db1a	-0.024030257
194	0xbdb4e9ea	-0.08833678
195	0xbd878be6	-0.066184804
196	0xbc83eed5	-0.016105095
197	0x3cb4ce04	0.022070892
198	0xbaf5372c	-0.0018708459
199	0xbcbe829e	-0.023255643
200	0x3c8b70e4	0.017021604
201	0x3d818668	0.06324464
202	0xbc34083b	-0.01098829
203	0x3db01bec	0.08599076
204	0x3ba7125d	0.0050986246
205	0xbca99965	-0.020703027
206	0xbdb2b538	-0.08725971
207	0xbd645514	-0.0557452
208	0x3cac1d3d	0.021010036
209	0xbc946ea4	-0.018119164
210	0xbb2b165f	-0.0026105864
211	0xbcff5293	-0.031167304
212	0x3d333d98	0.043759912
213	0xbd7f7d3e	-0.0623753
214	0x3cf5d2d1	0.030007752
215	0xbc9806c8	-0.018557921
216	0xbc1c309a	-0.009533072
217	0xbcd99d8a	-0.026564378
218	0xbcf4c754	-0.029880203
219	0x3c909c00	0.017652512
220	0xbc5d176d	-0.013494355
221	0x3dac792c	0.08421549
222	0xbd944215	-0.07239167
223	0x3ac81019	0.0015263587
224	0xbc89d8ac	-0.01682695
225	0x3d958a65	0.07301787
226	0xbd933804	-0.071884185
227	0x3d2df744	0.04247214
228	0x3d3f8a98	0.046763033
229	0x3dae2df0	0.08504856
230	0xbd464bd9	-0.048412178
231	0xbca63e7b	-0.020293465
232	0xbb56d21b	-0.0032779041
233	0xbd4c4c56	-0.049877487
234	0x3d3d931d	0.046282876
235	0xbc99e2cc	-0.018784903
236	0xbdaef62b	-0.085430466
237	0x3c458c74	0.012057412
238	0xbc3019c5	-0.010748331
239	0xbd84d74e	-0.064863786
240	0x3d999e84	0.075009376
241	0xbd0def46	-0.034652017
242	0x3d2daf5d	0.042403568
243	0xbd4aa3e2	-0.049472697
244	0x3d179fa2	0.037017472
245	0xbd7c0c4d	-0.06153517
246	0x3cf84144	0.030304559
247	0x3ce9e84c	0.02855315
248	0x3a9b3e95	0.0011844212
249	0xbd689245	-0.05678012
250	0xbd035acb	-0.03206901
251	0xbdc66e88	-0.09689051
252	0x3d52736f	0.051379617
253	0x3d277369	0.040881548
254	0x3da0ea63	0.07857206
255	0x3d08446d	0.03326838

network.4.bias f4 [128]
0	0x3d1a5c87	0.037685897
1	0xbd164e0a	-0.036695518
2	0x3d68de73	0.05685277
3	0xbd936cc5	-0.071984805
4	0x3d595224	0.05305685
5	0xbd862764	-0.06550482
6	0x3d361367	0.044452097
7	0x3dd39ee7	0.103330426
8	0xbcda3fb8	-0.026641712
9	0xbbf3a096	-0.007434915
10	0x3c1ded51	0.0096391
11	0xbcc85ff5	-0.024459818
12	0x3ac63b54	0.0015123882
13	0x3d4cf715	0.050040323
14	0xbba09ab9	-0.004901257
15	0xbb8fa49b	-0.004383636
16	0xbc5926a3	-0.013253841
17	0xbaaa37b9	-0.0012986577
18	0x3d3912e5	0.045184035
19	0xbd1b48bc	-0.03791116
20	0x3cfa2509	0.030535238
21	0xbde65cf8	-0.11248201
22	0xbc002c57	-0.007823071
23	0xbd86bcab	-0.06578954
24	0xbd444617	-0.047918405
25	0xbc2a3a47	-0.010389871
26	0xbd421be6	-0.047389887
27	0x3c321fc3	0.01087183
28	0xbda75e72	-0.08172311
29	0x3d81229d	0.0630543
30	0x3aa7993c	0.0012786756
31	0x3cb3cb0f	0.021947412
32	0x3e0b71f2	0.13617685
33	0xbc4b0c37	-0.012393049
34	0x3ca29903	0.019848352
35	0x3d988369	0.074469395
36	0x3d8cb14e	0.06869756
37	0xbd0e6ce4	-0.034771815
38	0x3cc3a4fe	0.023882385
39	0x3d8df905	0.06932262
40	0x3da42057	0.08013981
41	0x3ccf5d58	0.025313064
42	0xbcea105c	-0.028572254
43	0x3d5883e9	0.052860174
44	0xbdb06f95	-0.086150326
45	0xbce39117	-0.027779145
46	0xbc8d05a0	-0.017214596
47	0xbd46f43e	-0.04857277
48	0x3c81997e	0.015820261
49	0xbc8013da	-0.015634466
50	0xbd63328a	-0.05546812
51	0xbda1c6aa	-0.0789922
52	0x3df526cb	0.1197029
53	0x3d5ae9c0	0.053445578
54	0x3d2e5889	0.042564902
55	0x3cc6c674	0.024264552
56	0x3dc7156c	0.09720883
57	0x3c3657c9	0.011129328
58	0xbc8244ef	-0.01590201
59	0x3d5bc5bf	0.053655382
60	0xbd64e0a8	-0.05587831
61	0x3b8b95ae	0.0042597866
62	0x3e09ddc6	0.13463506
63	0xbd6c4c0c	-0.05768971
64	0xbd61780a	-0.05504612
65	0xbd4dbbc9	-0.050227914
66	0x3bada24c	0.0052988883
67	0x3dddcf5d	0.10830567
68	0x3deb3bcd	0.114860155
69	0x3d9274bd	0.07151172
70	0xbd726bfa	-0.059185006
71	0xbd9ac85e	-0.07557748
72	0xbd2b57a5	-0.04183163
73	0xbd968ea8	-0.07351428
74	0xbd9531fe	-0.07284926
75	0xba47d238	-0.00076225726
76	0xbd24b8d4	-0.04021533
77	0x3e0eed3b	0.13957684
78	0xbcd37b52	-0.02581564
79	0x3b9ad57d	0.004725157
80	0x3b554a41	0.003254548
81	0x3d876636	0.06611292
82	0x3c965b67	0.01835413
83	0xb890e14a	-6.9084184e-05
84	0x3c26375e	0.0101450365
85	0xbda214e6	-0.07914142
86	0xbc81462e	-0.015780535
87	0xbcb8b6a5	-0.02254803
88	0x3cec578d	0.028850341
89	0xbcf3d81d	-0.029766137
90	0xbd8c5edb	-0.0685403
91	0xba033725	-0.00050054706
92	0x3dd8165c	0.1055114
93	0x3cd92c2e	0.026510324
94	0x3d916a43	0.07100346
95	0xbd912134	-0.07086411
96	0xbc15cf0d	-0.009143603
97	0xbd260c63	-0.040539157
98	0x3dba112f	0.09085309
99	0x3dc34249	0.09534127
100	0xbcd30a88	-0.025761858
101	0x3ddbdaf9	0.10735125
102	0xbdb7bb8e	-0.0897132
103	0x3d3ddd5c	0.046353683
104	0xbd0b629e	-0.034029596
105	0x3d1feb5d	0.03904282
106	0x3d804cb8	0.06264633
107	0x3ca6fd0c	0.020384334
108	0x3cab165e	0.020884689
109	0x3df18e5f	0.11794733
110	0x3d84df9b	0.06487962
111	0x3cf3a914	0.029743709
112	0xbce30b1e	-0.027715262
113	0x3d8d43fb	0.06897732
114	0xbdaa7eb6	-0.083249494
115	0x3bfcc6ed	0.0077141435
116	0x3d54944c	0.05189924
117	0xbd5f6fbc	-0.054549918
118	0x3d629935	0.05532189
119	0x3e0eaf49	0.13934053
120	0x3df46c58	0.119347274
121	0xbd440945	-0.047860403
122	0xbc268ac6	-0.010164922
123	0xbd9280f6	-0.071535036
124	0x3cad6a32	0.021168802
125	0xbd91259e	-0.07087253
126	0x3c9c27aa	0.019061882
127	0xbd9fdbd0	-0.07805598

network.6.weight f4 [64, 128]
0	0xbdb27ece	-0.08715592
1	0xbc55fc67	-0.013060666
2	0xbbb26ad2	-0.005444863
3	0x3d64e004	0.0558777
4	0xbb88c35b	-0.004173679
5	0xbd0dcc03	-0.03461839
6	0xbd5e7b1f	-0.054316636
7	0xbdbb0b5e	-0.091330275
8	0xbdad7f2d	-0.084715225
9	0xbc8ea95c	-0.017414741
10	0xbda01346	-0.07816176
11	0x3d8ed9c2	0.06975128
12	0xbd47881c	-0.04871379
13	0x3c184d31	0.009295748
14	0x3da5a4af	0.080880515
15	0xbcfe3c2e	-0.031034555
16	0x3ca0fb17	0.019650979
17	0xbd849f44	-0.0647569
18	0xbd9c4865	-0.07630996
19	0xbd2dd875	-0.042442758
20	0xbc047530	-0.00808458
21	0xbcf51415	-0.029916802
22	0x3cc233e1	0.023706378
23	0xbcf6b075	-0.030113438
24	0xbd8dcf11	-0.069242604
25	0xbd81ae4d	-0.06332073
26	0xbb583981	-0.003299326
27	0x3d8e94b7	0.06961959
28	0xbcf15238	-0.02945815
29	0x3d49ee75	0.049299676
30	0x3d9816cc	0.07426223
31	0x3cce30e1	0.025169792
32	0x3da1dd52	0.079035416
33	0xbbd420d4	-0.00647364
34	0x3d8e62ea	0.0695246
35	0xbd0cc054	-0.034363106
36	0xbd33412b	-0.04376332
37	0x3d878177	0.0661649
38	0x3cf310d2	0.029671106
39	0x3b50007a	0.0031738565
40	0x3d96e76a	0.073683575
41	0x3c408e5e	0.011752693
42	0x3cfa78e2	0.03057522
43	0xbd150776	-0.03638407
44	0xbbad3814	-0.005286226
45	0xbd2238ab	-0.039604824
46	0x3cd82627	0.02638538
47	0x3da07e96	0.07836644
48	0xbdb3dd62	-0.0878246
49	0x3d23ec0b	0.04002003
50	0xbbc5c560	-0.006035492
51	0x3a444921	0.00074877037
52	0xbd75b6c3	-0.05998875
53	0xbd31128f	-0.04323059
54	0xbd0ccbb5	-0.034373958
55	0x3d86e83e	0.065872654
56	0xbd91c483	-0.0711756
57	0x3c54332b	0.0129516525
58	0x3d662874	0.056190923
59	0xbd86c044	-0.065796405
60	0xbd9a9c09	-0.075492926
61	0xbd5ea28d	-0.05435424
62	0xbc893b1d	-0.01675182
63	0xbd0ad6ec	-0.03389637
64	0x3db19b65	0.08672217
65	0xbda59388	-0.0808478
66	0xbdb11ab8	-0.08647674
67	0x38ba2584	8.876159e-05
68	0x3da012b2	0.07816066
69	0x3d5c7c6e	0.053829603
70	0xbd53bd2e	-0.051694088
71	0xbd8ecae0	-0.06972289
72	0x3c9b577c	0.018962614
73	0x3d5a8d9d	0.05335771
74	0x3d44a97e	0.048013203
75	0x3d01630e	0.031588607
76	0xbd0653b7	-0.03279468
77	0x3d6a348f	0.05717903
78	0x3dab1092	0.0835277
79	0x3dae5220	0.08511758
80	0xbda7645d	-0.0817344
81	0x3c797d3c	0.015227612
82	0x3d1b6de0	0.03794658
83	0xbd9c7480	-0.07639408
84	0x3d9215e8	0.071330845
85	0xbd9ef0b9	-0.07760758
86	0xbcd9b746	-0.02657665
87	0x3c83431a	0.016023207
88	0xbc04dda4	-0.008109484
89	0xbd8e5247	-0.06949287
90	0xbb3559cd	-0.0027671934
91	0xbda729f1	-0.081622966
92	0x3d570ba7	0.052501347
93	0xbd646580	-0.05576086
94	0x3d07ff85	0.033202667
95	0xbd959922	-0.073045984
96	0x3d434489	0.047672782
97	0x3d8b63c9	0.06806142
98	0xbd987b62	-0.074454084
99	0x3d490dd2	0.049085446
100	0xbcd0dc66	-0.02549572
101	0x3ccbb956	0.024868648
102	0x3d0cfaf2	0.034419008
103	0x3d676566	0.056493185
104	0x3c269fb1	0.010169909
105	0xbdb367b3	-0.087600134
106	0x3c759733	0.014989662
107	0xbd467b96	-0.048457704
108	0xbadf7fe4	-0.0017051664
109	0xbd57cfcd	-0.05268841
110	0x3d135878	0.035973042
111	0x3cf8af4c	0.030357026
112	0xbd3ffdad	-0.046872783
113	0x3d0093eb	0.031391066
114	0xbca74f83	-0.020423656
115	0x3d93e774	0.072218806
116	0x3d725a0c	0.059167907
117	0xbc596edf	-0.013271063
118	0x3d43701d	0.04771434
119	0xbd1c7b65	-0.038203616
120	0xbd233606	-0.039846443
121	0xbd52de38	-0.051481456
122	0x3d04f525	0.03246035
123	0x3da46fa0	0.08029103
124	0x3b32ffe1	0.002731316
125	0x3c93a758	0.018024132
126	0x39f03d51	0.00045822051
127	0xbb5828c3	-0.003298328
128	0xbcccb365	-0.024987886
129	0xbda2f13f	-0.0795617
130	0x3d1acdc1	0.03779388
131	0x3ccacac9	0.024754899
132	0x3db14e6a	0.086575344
133	0xbdaeec7a	-0.08541198
134	0xbc889011	-0.016670259
135	0xbd63f0e2	-0.055649646
136	0x3db13597	0.086527996
137	0xbd63bf9b	-0.05560265
138	0xbbbe65c1	-0.00581047
139	0xbc84bd14	-0.01620344
140	0x3d10add8	0.03532204
141	0xbcca886d	-0.024723256
142	0xba1ec534	-0.0006056607
143	0xbca64e3c	-0.020300977
144	0xbd378123	-0.04480089
145	0x3d8e99f8	0.06962961
146	0x3c817574	0.015803076
147	0xbdab59c8	-0.08366734
148	0xbd77fb0a	-0.060542144
149	0xbabda3d4	-0.001446838
150	0xbd8e0e4d	-0.069363214
151	0x3d6a7854	0.05724366
152	0xbdb02931	-0.08601607
153	0x3d993547	0.07480865
154	0xbd19458b	-0.037419837
155	0xbd99e100	-0.075136185
156	0xbceec84c	-0.029148243
157	0xbd70a839	-0.05875418
158	0x3d9134ec	0.07090172
159	0xbdb10f9e	-0.08645557
160	0x3d0d0277	0.03442618
161	0x3ba4a905	0.0050250315
162	0x3cedf9a5	0.029049704
163	0x3d06fb2e	0.032954387
164	0xbd2b7cbc	-0.041867003
165	0xbd848b00	-0.06471825
166	0xbcc11fd3	-0.023574745
167	0xbc4e32c2	-0.012585344
168	0x3d9f4d1b	0.077783786
169	0xbd2bd219	-0.04194841
170	0xbd043a2c	-0.03228204
171	0xbd772ead	-0.060347248
172	0x3cb1a62b	0.02168568
173	0xbd950e4a	-0.07278116
174	0xbd8a1cf6	-0.06743805
175	0x3d7f9d7c	0.06240605
176	0x3cbd581a	0.0231133
177	0x3ccfb9db	0.025357177
178	0x3c772b51	0.015086011
179	0x3d9beeca	0.07613905
180	0xbd4b3ada	-0.049616672
181	0xbcda89fa	-0.02667712
182	0x3d82db4a	0.06389482
183	0x3d881acd	0.06645737
184	0xbd300812	-0.042976446
185	0xbcb8abb3	-0.02254281
186	0xbda2e4b9	-0.07953782
187	0x3db0deb3	0.086362265
188	0xbc26c727	-0.010179318
189	0x3da0996b	0.07841762
190	0xbd15551c	-0.03645812
191	0xbcbe991b	-0.023266366
192	0xbd5b4691	-0.053534094
193	0xbd39de1f	-0.045377847
194	0xbd80b549	-0.062845774
195	0x3d8541fc	0.06506726
196	0x3d8e16e4	0.0693796
197	0xbd0eff37	-0.03491136
198	0x3c7dbb2e	0.015486522
199	0x3db0dbee	0.08635698
200	0x3c602979	0.013681763
201	0x3a304624	0.0006724319
202	0x3d81f145	0.06344847
203	0xbd0720f2	-0.032990403
204	0xbd6c7f4f	-0.0577386
205	0x3b7caa3d	0.0038553618
206	0xbd8e672c	-0.06953272
207	0xbd63c9f8	-0.055612534
208	0xbc24236c	-0.010018211
209	0x3d6284ab	0.055302303
210	0xbd306bf3	-0.0430717
211	0x3c4142ab	0.01179568
212	0xbd4e1627	-0.050314095
213	0x3d83b23d	0.06430481
214	0x3d67a440	0.056553125
215	0xbc08b16f	-0.008343085
216	0x3cba6182	0.022751573
217	0x3d96a5c3	0.07355835
218	0xbd7f74ba	-0.06236718
219	0x3d1bbb19	0.038020227
220	0x3db317fc	0.08744809
221	0x3d8224ac	0.06354651
222	0xbcfc8929	-0.030827122
223	0x3ba3482d	0.0049829693
224	0x3da5284e	0.08064328
225	0x3d37e060	0.044891715
226	0xbd9abfd1	-0.07556117
227	0x3d6b50a3	0.057449948
228	0x3d619f8b	0.055083793
229	0x3cbca0a1	0.023025813
230	0xbd9277de	-0.07151769
231	0xbc72f3b2	-0.014828609
232	0xbce68672	-0.02814028
233	0xbd48b0c7	-0.048996713
234	0xbcaa74e8	-0.020807698
235	0xbd642ec1	-0.05570865
236	0xbd1fe839	-0.039039824
237	0xbd1647e7	-0.036689665
238	0xbcf88c57	-0.030340357
239	0x3d86818f	0.0656768
240	0x3b78464b	0.0037883695
241	0x3c650962	0.013979288
242	0xbd498d07	-0.04920676
243	0x3c8566c8	0.016284361
244	0xbd948fcf	-0.07253992
245	0x3d49227d	0.049105156
246	0xbb3c1752	-0.0028700423
247	0xbdaa3965	-0.083117284
248	0x3cef7def	0.029234855
249	0xbd6b8b4e	-0.0575059
250	0x3d213386	0.039355777
251	0xbd357427	-0.044300225
252	0x3cad25ea	0.021136243
253	0x3d128cfc	0.035778984
254	0x3d780a55	0.06055673
255	0x3b935ae9	0.0044969213

network.6.bias f4 [64]
0	0x3d585b76	0.0528216
1	0xbd821e33	-0.06353416
2	0x3c834f3d	0.016028995
3	0x3d82c26e	0.06384741
4	0x3ca7bc57	0.02047555
5	0xbd2f7cc2	-0.042843588
6	0xbcb1a2be	-0.021684047
7	0xbdb2e276	-0.087346
8	0x3d24a282	0.040194042
9	0xbcfa50cd	-0.030556107
10	0x3debbe94	0.11510959
11	0x3d9880f0	0.07446468
12	0x3e041a20	0.12900591
13	0x3dff9bb1	0.12480868
14	0x3d6a3e0e	0.057188086
15	0xbd654ed0	-0.055983365
16	0xbda5299c	-0.08064577
17	0x3e0b87b7	0.1362599
18	0x3bde8138	0.0067903064
19	0x3db97310	0.090551496
20	0x3d6710e9	0.05641261
21	0x3d285c7c	0.041103825
22	0x3d20230e	0.03909593
23	0xbd63b6cd	-0.055594254
24	0x3d4c0e12	0.049818106
25	0x3d8c9fed	0.06866441
26	0x3c8c822b	0.017151913
27	0x3e097230	0.13422465
28	0xbd8232a0	-0.06357312
29	0xbd68c915	-0.05683239
30	0x3e1de16c	0.15418023
31	0xbd1a009c	-0.037598237
32	0x3bd22712	0.006413349
33	0xba3c04c9	-0.0007172344
34	0x3d7bb0f7	0.061448064
35	0xbd05793c	-0.03258632
36	0x3d7ac4ee	0.061222963
37	0x3b8ab484	0.004232945
38	0x3deeda2c	0.11662707
39	0x3e015d8d	0.12633343
40	0xbbe89bf0	-0.0070986673
41	0xbc27bd21	-0.010237963
42	0x3c0dd308	0.008656271
43	0xbd524b41	-0.0513413
44	0x3e1d4f07	0.15362178
45	0xbc7bf2bc	-0.015377697
46	0xbdab39e7	-0.08360653
47	0x3cb9c83f	0.022678493
48	0x3df0d5b1	0.117595084
49	0x3d5006ae	0.05078762
50	0xbcbdb279	-0.023156391
51	0x3d1799da	0.03701196
52	0xbd4cfa62	-0.05004347
53	0xbd101bd9	-0.035182808
54	0xbbaccf5e	-0.0052737435
55	0xbd273bb7	-0.040828433
56	0x3ddbb946	0.107286975
57	0x3c6cd28a	0.014454493
58	0x3beefca5	0.007293301
59	0xbda667de	-0.0812528
60	0x3e12fd70	0.14354491
61	0xbca1c239	-0.019745933
62	0x3de77e19	0.11303348
63	0xbd1b5b81	-0.03792906

network.8.weight f4 [98, 64]
0	0x3c93989c	0.018017106
1	0x3de93d8c	0.11388692
2	0xbdd743eb	-0.10511001
3	0xbd5e860d	-0.05432706
4	0xbc7c5bd0	-0.015402749
5	0x3da057dc	0.07829258
6	0xbddeb852	-0.10875
7	0xbd955216	-0.07291047
8	0xba5e6bc6	-0.00084846874
9	0xbdbeecde	-0.093225226
10	0x3d1a23e2	0.037631877
11	0x3d1f1ae3	0.038844
12	0x3b036c45	0.0020053547
13	0xbdc33397	-0.09531324
14	0xbd4a1327	-0.04933467
15	0x3d57c560	0.052678466
16	0x3d68348d	0.05669074
17	0xbd7010fb	-0.058609944
18	0x3de0097f	0.10939311
19	0x3d64f50b	0.055897754
20	0x3d97e06d	0.07415853
21	0x3d7c4b7f	0.061595436
22	0xbd0bedbc	-0.034162268
23	0xbd03cb40	-0.032176256
24	0x3dd68dd5	0.10476271
25	0x3de54e10	0.1119653
26	0xbc6ceaf0	-0.01446031
27	0x3d275da1	0.040860776
28	0xbc8f5d87	-0.017500652
29	0xbda1dc30	-0.079033256
30	0x3da85da6	0.08220987
31	0xbdcf3b28	-0.10118705
32	0x3dd8093c	0.10548636
33	0x3dfead8c	0.12435445
34	0x3db60910	0.08888447
35	0xbd9230a6	-0.07138185
36	0x3c3cccd5	0.011523445
37	0xbd5f89f0	-0.054574907
38	0xbd442ed0	-0.047896206
39	0x3d847737	0.06468051
40	0x3da3609a	0.0797741
41	0x3dc8ce14	0.09804931
42	0x3c5f8a0e	0.013643755
43	0xbd15deac	-0.03658931
44	0xbd521b67	-0.051295664
45	0xbd89c528	-0.06727058
46	0x3c1c9e7d	0.009559271
47	0x3d5e05f4	0.054204896
48	0x3ccbc859	0.024875807
49	0x3c84dfcf	0.016220002
50	0x3e002548	0.12514222
51	0x3d67c214	0.05658157
52	0xbc6f9950	-0.014623955
53	0x3cbaf400	0.022821426
54	0x3dbc9e7c	0.09209916
55	0x3ddd1268	0.10794526
56	0xbd87d2fe	-0.066320404
57	0x3cfcf298	0.030877396
58	0x3c3afb30	0.011412427
59	0xbde15d76	-0.110041544
60	0x3ddc19f1	0.107471354
61	0xbd7bc21b	-0.06146441
62	0xbd77ad59	-0.06046805
63	0x3cf41c99	0.029798793
64	0x3da7b1dd	0.081882216
65	0x3d7f9b2c	0.062403843
66	0xbd2fed34	-0.042950824
67	0x3e1ce4ac	0.15321606
68	0x3dffae70	0.12484443
69	0x3d30d561	0.043172244
70	0x3d90bf10	0.07067692
71	0xbd80a97c	-0.062823266
72	0xbd638000	-0.055541992
73	0x3df1060a	0.1176873
74	0x3d9bcd38	0.07607502
75	0x3dfb4bf2	0.12270345
76	0x3ceaf088	0.028679147
77	0xbd8424af	-0.06452309
78	0x3dbf044b	0.09326991
79	0xbd5d0998	-0.053964227
80	0x3dc5f515	0.09665886
81	0x3c9c710e	0.019096877
82	0xbdae8aea	-0.085225895
83	0xbddd6f84	-0.108122855
84	0xbc4a8a51	-0.012362079
85	0x3e008630	0.12551188
86	0x3d436878	0.04770705
87	0x3da44adc	0.08022091
88	0x3c8e997e	0.017407175
89	0x3db4a3cd	0.08820305
90	0x3de54fbe	0.1119685
91	0xbd6c9e61	-0.05776823
92	0x3dbf2ec8	0.09335095
93	0x3d4d6fcc	0.050155446
94	0x3c5ff46b	0.013669114
95	0x3d2ce621	0.042211656
96	0xbd5bf0b8	-0.053696364
97	0xbd6aeccb	-0.05735473
98	0xbdf22c22	-0.11824824
99	0xbdab5eda	-0.08367701
100	0x3d50b2c1	0.050951723
101	0x3c932dd8	0.017966196
102	0x3dcbff81	0.09960843
103	0x3db1716f	0.08664214
104	0x3ddfea42	0.10933353
105	0xbd240ff2	-0.04005427
106	0x3bb71c4f	0.0055880914
107	0xbd08a3e8	-0.03335944
108	0x3ddc33e8	0.10752088
109	0xbd9d4246	-0.07678656
110	0x3dd73c64	0.105095655
111	0x3d92258e	0.07136069
112	0xbaae430a	-0.0013295126
113	0x3d3deab8	0.046366423
114	0x3bbdbcdb	0.0057903356
115	0xbdba4b7a	-0.09096427
116	0xbd127bf8	-0.035762757
117	0xbd95ff14	-0.07324043
118	0x3dcf638a	0.101264074
119	0xbdf770e4	-0.12082079
120	0xbd4b26ad	-0.04959743
121	0xbc3d17f0	-0.011541352
122	0x3df15efa	0.117856935
123	0x3cc25d68	0.02372618
124	0xbdc6e1cd	-0.09711037
125	0x3cd54aa4	0.026036568
126	0x3dfb1c8f	0.122613065
127	0xbd8d3e09	-0.06896598
128	0x3d21e43e	0.03952431
129	0x3dc8cf5a	0.09805174
130	0xbdd49dc5	-0.10381655
131	0xbd9c5b86	-0.07634644
132	0xbdef2ea6	-0.11678819
133	0x3db182d7	0.08667534
134	0x3d893d8e	0.06701194
135	0xbd34225c	-0.04397808
136	0xbc53be06	-0.012923723
137	0xbc5384b0	-0.012910053
138	0xbc5397b0	-0.012914583
139	0xbcf43369	-0.02980967
140	0xbd95347b	-0.072854005
141	0x3c8c7d82	0.01714969
142	0x3d051cf1	0.032498304
143	0xbd191cec	-0.037381098
144	0xbd8e90f6	-0.06961243
145	0x3d1c9131	0.038224403
146	0xbd843f45	-0.0645738
147	0x3c338f34	0.010959435
148	0xbd331b5f	-0.043727275
149	0xbcecd75b	-0.028911283
150	0x3d970bf4	0.07375327
151	0xbd835ed8	-0.064145744
152	0x3da03a85	0.07823662
153	0x3da4f7a7	0.080550484
154	0xbdbcec8e	-0.09224807
155	0x3da7841b	0.08179494
156	0xbdecafb5	-0.11556951
157	0xbce95588	-0.028483167
158	0xbdb43db5	-0.08800832
159	0x3db88e45	0.09011511
160	0xbcdc3c88	-0.026884332
161	0xbd0bf0a5	-0.034165043
162	0x3c713ccd	0.014723969
163	0x3c9cb6d0	0.01913014
164	0x3d924a55	0.07143084
165	0xbd3fc7b4	-0.04682131
166	0x3cc263be	0.023729201
167	0xbd593e70	-0.05303806
168	0xbd989f24	-0.07452229
169	0xbdc3bfc8	-0.09558064
170	0x3de4dcd1	0.1117493
171	0xbcea9700	-0.028636456
172	0xbd29feb5	-0.041502673
173	0xbd9dfcb1	-0.07714213
174	0xbd418871	-0.04724926
175	0xbd96af5e	-0.073576674
176	0x3ddb12e3	0.10696962
177	0xbd4c5130	-0.049882114
178	0xbd4bc2d2	-0.049746342
179	0xbd200870	-0.039070547
180	0x3d18dfa8	0.03732267
181	0xba833b80	-0.0010012239
182	0xbcd697ad	-0.026195372
183	0xbd9e2d22	-0.07723452
184	0xbdbca4bd	-0.09211109
185	0x3d9854d0	0.07438052
186	0x3cdecf78	0.027198538
187	0x3cc78230	0.02435407
188	0xbcead77e	-0.028667208
189	0xbd5b7432	-0.05357761
190	0x3d9a273c	0.075270146
191	0x3df38287	0.118901305
192	0xbdebf611	-0.11521543
193	0xbda3a480	-0.0799036
194	0x3dad4cfb	0.084619485
195	0x3d3e5fd7	0.04647812
196	0x3ddad074	0.106842905
197	0xbd938f3f	-0.072050564
198	0x3db637e0	0.08897376
199	0x3c826e80	0.015921831
200	0x3cad4c9a	0.02115469
201	0xbdd959e4	-0.106128484
202	0xbb8913b9	-0.0041832593
203	0xbda3920e	-0.07986842
204	0xbe18541c	-0.14875835
205	0xbc05c0dd	-0.008163658
206	0xbdb2bbf9	-0.08727259
207	0xbd4b9a54	-0.049707726
208	0xbdb3db87	-0.08782106
209	0xbd9317b1	-0.07182253
210	0xbdd109b5	-0.102069296
211	0xbdede8ab	-0.116166435
212	0xbdbebfde	-0.093139395
213	0xbd4512ce	-0.048113637
214	0x3deb4922	0.11488558
215	0xbdd023b4	-0.1016306
216	0x3d336604	0.04379846
217	0xbbb80890	-0.005616255
218	0xbd1f69ac	-0.038919136
219	0xbdeaeae7	-0.11470585
220	0x3da2a32f	0.07941281
221	0xbd1835f0	-0.037160814
222	0xbdde2358	-0.10846585
223	0x3d87d2dd	0.06632016
224	0x3dd2e572	0.102976695
225	0xbcb61593	-0.022227084
226	0xbc954872	-0.018223021
227	0x3d84313c	0.06454703
228	0xbddf191f	-0.10893463
229	0x3bb757e0	0.0055951923
230	0xbda3bcae	-0.07994972
231	0xbd87f0cc	-0.06637725
232	0x3d965fb8	0.07342476
233	0xbe04877d	-0.1294231
234	0xbce6c208	-0.028168693
235	0x3d3cd3ac	0.046100304
236	0xbe003c5a	-0.12523022
237	0xbd147877	-0.036247697
238	0x3da044a2	0.07825591
239	0xbce12f50	-0.02748838
240	0xbe1be369	-0.15223469
241	0x3d340d70	0.043958127
242	0x3d42b919	0.047539804
243	0xbc50ab90	-0.012736216
244	0xbdec4f00	-0.115385056
245	0x3def8f50	0.116972566
246	0x3dcd99e5	0.10039119
247	0x3ccda978	0.025105223
248	0xbe21c6bc	-0.15798467
249	0x3bdd05e0	0.006745085
250	0xbc00f120	-0.007869989
251	0xbc85fba8	-0.01635535
252	0xbdc0964f	-0.09403669
253	0xbdc9921b	-0.098423205
254	0xbdfde958	-0.123980224
255	0xbcc39d1e	-0.02387863

network.8.bias f4 [98]
0	0x3e2753e9	0.16340603
1	0x3e21ee8b	0.15813653
2	0x3d62ef62	0.055404074
3	0xbe2f583d	-0.17123504
4	0x3e20d915	0.1570781
5	0x3d80f7f3	0.062972926
6	0xbe3a67ac	-0.1820361
7	0x3e30547e	0.17219731
8	0x3df24668	0.11829835
9	0x3d872cd5	0.06600348
10	0xbe05f41e	-0.13081405
11	0x3d03851a	0.032109357
12	0x3dfc437f	0.12317561
13	0xbc52184e	-0.0128231775
14	0x3d28b0e8	0.041184336
15	0x3cfe78fb	0.031063547
16	0xbdc7a4fe	-0.09748267
17	0xbd6802ca	-0.056643285
18	0xbd5dad50	-0.05412036
19	0x3e0e4724	0.13894325
20	0xbe556b74	-0.20841771
21	0xbc8811da	-0.016610075
22	0x3e07993f	0.13242052
23	0xbdda1545	-0.10648588
24	0xbe3f66f7	-0.18691622
25	0xbcf5550f	-0.029947786
26	0x3d563cba	0.052304007
27	0xbd874b64	-0.066061765
28	0x3d58e4ff	0.052952763
29	0xbd701ec3	-0.058623087
30	0xbd98b3f2	-0.07456197
31	0xbe0e5ad1	-0.13901831
32	0x3d79bbf3	0.060970258
33	0x3e0cfc2a	0.13768068
34	0xbe0131af	-0.12616609
35	0x3dea811a	0.114504054
36	0x3e1a30ee	0.15057728
37	0xbe3085d9	-0.17238559
38	0xbde32a4c	-0.11092052
39	0x3cd3c850	0.025852352
40	0x3e496b0c	0.19669741
41	0xbe5e756c	-0.2172448
42	0x3e1c907a	0.15289488
43	0xbdbcfc76	-0.092278406
44	0xbd9e4d71	-0.077296145
45	0xbd1412b6	-0.036150657
46	0x3c88d69d	0.016703898
47	0x3d1ffcf5	0.039059598
48	0xbdf002de	-0.11719297
49	0x3d30d5a5	0.043172497
50	0x3d98aa2f	0.07454335
51	0xbe1d3bc2	-0.15354827
52	0xbe18807c	-0.14892763
53	0xbc07c2ac	-0.0082861595
54	0x3e1d02be	0.15333077
55	0xbe3c1800	-0.1836853
56	0xbd8c2258	-0.06842488
57	0x3b36cdb6	0.002789361
58	0xbe035f3b	-0.12829296
59	0xbd3f039f	-0.046634313
60	0x3e1d80d3	0.15381174
61	0x3df8b305	0.1214352
62	0xbe36bcb9	-0.1784543
63	0xbd5907b8	-0.052985877
64	0x3dd2062b	0.10255083
65	0xbdbd3360	-0.09238315
66	0xbc92f056	-0.017936867
67	0x3d79230f	0.06082445
68	0x3e317027	0.17327939
69	0xbe59c336	-0.21265873
70	0x3dc2e8d8	0.09517068
71	0x3bed3b4e	0.0072397357
72	0xbe23cc36	-0.15995869
73	0xbe1c83ca	-0.15284649
74	0x3cc1e4aa	0.023668606
75	0x3d5c6e0e	0.053815894
76	0xbd5ad383	-0.05342437
77	0x3e1ccf98	0.15313566
78	0xbdd34957	-0.10316723
79	0xbdd4d282	-0.10391714
80	0xbdbc8d2d	-0.09206615
81	0x3d81ba0b	0.06334313
82	0x3e11d82d	0.14242621
83	0xbd8d0348	-0.068853915
84	0xbd17b638	-0.03703901
85	0x3d3479b4	0.044061378
86	0x3d9d61cc	0.07684669
87	0x3c2537a0	0.010084063
88	0x3d9cce12	0.07656492
89	0x3d0b964a	0.034078874
90	0xbdcac94c	-0.099016756
91	0x3d9aaa70	0.075520396
92	0x3d91c88d	0.0711833
93	0x3d3a4bae	0.04548233
94	0xbe132d75	-0.14372809
95	0x3de4082f	0.111343734
96	0x3e426bcb	0.18986432
97	0xbe690a82	-0.22757915
